#loc = loc("C:\\Users\\Administrator\\AppData\\Local\\Temp\\torchinductor_Administrator\\cd\\ccdcwxexqeceavr42ivgorgpxfdlvtfm5poeygc3vpbkuig6z3nm.py":18:0)
module {
  tt.func public @triton_poi_fused_cat_2(%arg0: !tt.ptr<f32> {tt.divisibility = 16 : i32} loc("C:\\Users\\Administrator\\AppData\\Local\\Temp\\torchinductor_Administrator\\cd\\ccdcwxexqeceavr42ivgorgpxfdlvtfm5poeygc3vpbkuig6z3nm.py":18:0), %arg1: !tt.ptr<f32> {tt.divisibility = 16 : i32} loc("C:\\Users\\Administrator\\AppData\\Local\\Temp\\torchinductor_Administrator\\cd\\ccdcwxexqeceavr42ivgorgpxfdlvtfm5poeygc3vpbkuig6z3nm.py":18:0), %arg2: i32 {tt.divisibility = 16 : i32} loc("C:\\Users\\Administrator\\AppData\\Local\\Temp\\torchinductor_Administrator\\cd\\ccdcwxexqeceavr42ivgorgpxfdlvtfm5poeygc3vpbkuig6z3nm.py":18:0)) attributes {noinline = false} {
    %c7340032_i32 = arith.constant 7340032 : i32 loc(#loc1)
    %0 = tt.get_program_id x : i32 loc(#loc2)
    %c512_i32 = arith.constant 512 : i32 loc(#loc3)
    %c512_i32_0 = arith.constant 512 : i32 loc(#loc3)
    %1 = arith.muli %0, %c512_i32_0 : i32 loc(#loc3)
    %2 = tt.make_range {end = 512 : i32, start = 0 : i32} : tensor<512xi32> loc(#loc4)
    %3 = tt.splat %1 : i32 -> tensor<512xi32> loc(#loc5)
    %4 = arith.addi %3, %2 : tensor<512xi32> loc(#loc5)
    %true = arith.constant true loc(#loc6)
    %cst = arith.constant dense<true> : tensor<512xi1> loc(#loc6)
    %c4_i32 = arith.constant 4 : i32 loc(#loc7)
    %c4_i32_1 = arith.constant 4 : i32 loc(#loc7)
    %cst_2 = arith.constant dense<4> : tensor<512xi32> loc(#loc7)
    %5 = arith.divsi %4, %cst_2 : tensor<512xi32> loc(#loc7)
    %c64_i32 = arith.constant 64 : i32 loc(#loc8)
    %c64_i32_3 = arith.constant 64 : i32 loc(#loc8)
    %cst_4 = arith.constant dense<64> : tensor<512xi32> loc(#loc8)
    %6 = arith.remsi %5, %cst_4 : tensor<512xi32> loc(#loc8)
    %c4_i32_5 = arith.constant 4 : i32 loc(#loc9)
    %c4_i32_6 = arith.constant 4 : i32 loc(#loc9)
    %cst_7 = arith.constant dense<4> : tensor<512xi32> loc(#loc9)
    %7 = arith.remsi %4, %cst_7 : tensor<512xi32> loc(#loc9)
    %c256_i32 = arith.constant 256 : i32 loc(#loc10)
    %c256_i32_8 = arith.constant 256 : i32 loc(#loc10)
    %cst_9 = arith.constant dense<256> : tensor<512xi32> loc(#loc10)
    %8 = arith.divsi %4, %cst_9 : tensor<512xi32> loc(#loc10)
    %c0_i64 = arith.constant 0 : i64 loc(#loc11)
    %cst_10 = arith.constant dense<0> : tensor<1xi64> loc(#loc11)
    %9 = arith.extsi %6 : tensor<512xi32> to tensor<512xi64> loc(#loc12)
    %cst_11 = arith.constant dense<0> : tensor<512xi64> loc(#loc12)
    %10 = arith.cmpi sge, %9, %cst_11 : tensor<512xi64> loc(#loc12)
    %c22_i64 = arith.constant 22 : i64 loc(#loc13)
    %cst_12 = arith.constant dense<22> : tensor<1xi64> loc(#loc13)
    %11 = arith.extsi %6 : tensor<512xi32> to tensor<512xi64> loc(#loc14)
    %cst_13 = arith.constant dense<22> : tensor<512xi64> loc(#loc14)
    %12 = arith.cmpi slt, %11, %cst_13 : tensor<512xi64> loc(#loc14)
    %c0_i64_14 = arith.constant 0 : i64 loc(#loc15)
    %cst_15 = arith.constant dense<0> : tensor<1xi64> loc(#loc15)
    %13 = arith.extsi %7 : tensor<512xi32> to tensor<512xi64> loc(#loc16)
    %cst_16 = arith.constant dense<0> : tensor<512xi64> loc(#loc16)
    %14 = arith.cmpi sge, %13, %cst_16 : tensor<512xi64> loc(#loc16)
    %c1_i64 = arith.constant 1 : i64 loc(#loc17)
    %cst_17 = arith.constant dense<1> : tensor<1xi64> loc(#loc17)
    %15 = arith.extsi %7 : tensor<512xi32> to tensor<512xi64> loc(#loc18)
    %cst_18 = arith.constant dense<1> : tensor<512xi64> loc(#loc18)
    %16 = arith.cmpi slt, %15, %cst_18 : tensor<512xi64> loc(#loc18)
    %17 = arith.andi %16, %12 : tensor<512xi1> loc(#loc19)
    %c3_i32 = arith.constant 3 : i32 loc(#loc20)
    %c3_i32_19 = arith.constant 3 : i32 loc(#loc20)
    %cst_20 = arith.constant dense<3> : tensor<512xi32> loc(#loc20)
    %18 = arith.muli %cst_20, %8 : tensor<512xi32> loc(#loc20)
    %19 = tt.splat %arg0 : !tt.ptr<f32> -> tensor<512x!tt.ptr<f32>> loc(#loc21)
    %20 = tt.addptr %19, %18 : tensor<512x!tt.ptr<f32>>, tensor<512xi32> loc(#loc21)
    %cst_21 = arith.constant 0.000000e+00 : f32 loc(#loc22)
    %cst_22 = arith.constant dense<0.000000e+00> : tensor<512xf32> loc(#loc22)
    %21 = tt.load %20, %17, %cst_22 evictionPolicy = evict_last : tensor<512x!tt.ptr<f32>> loc(#loc22)
    %22 = arith.extf %21 : tensor<512xf32> to tensor<512xf64> loc(#loc23)
    %23 = arith.sitofp %6 : tensor<512xi32> to tensor<512xf32> loc(#loc24)
    %cst_23 = arith.constant 1.100000e+01 : f32 loc(#loc25)
    %cst_24 = arith.constant dense<1.100000e+01> : tensor<512xf32> loc(#loc26)
    %24 = arith.cmpf olt, %23, %cst_24 : tensor<512xf32> loc(#loc26)
    %25 = arith.sitofp %6 : tensor<512xi32> to tensor<512xf64> loc(#loc27)
    %cst_25 = arith.constant 0.045454545454545456 : f64 loc(#loc28)
    %cst_26 = arith.constant dense<0.045454545454545456> : tensor<1xf64> loc(#loc28)
    %cst_27 = arith.constant dense<0.045454545454545456> : tensor<512xf64> loc(#loc29)
    %26 = arith.mulf %25, %cst_27 : tensor<512xf64> loc(#loc29)
    %cst_28 = arith.constant 0.000000e+00 : f64 loc(#loc30)
    %cst_29 = arith.constant dense<0.000000e+00> : tensor<1xf64> loc(#loc30)
    %cst_30 = arith.constant dense<0.000000e+00> : tensor<512xf64> loc(#loc31)
    %27 = arith.addf %26, %cst_30 : tensor<512xf64> loc(#loc31)
    %c-1_i32 = arith.constant -1 : i32 loc(#loc32)
    %c-1_i32_31 = arith.constant -1 : i32 loc(#loc32)
    %cst_32 = arith.constant dense<-1> : tensor<512xi32> loc(#loc32)
    %28 = arith.muli %cst_32, %6 : tensor<512xi32> loc(#loc32)
    %c21_i32 = arith.constant 21 : i32 loc(#loc33)
    %c21_i32_33 = arith.constant 21 : i32 loc(#loc33)
    %cst_34 = arith.constant dense<21> : tensor<512xi32> loc(#loc33)
    %29 = arith.addi %cst_34, %28 : tensor<512xi32> loc(#loc33)
    %30 = arith.sitofp %29 : tensor<512xi32> to tensor<512xf64> loc(#loc34)
    %cst_35 = arith.constant dense<0.045454545454545456> : tensor<512xf64> loc(#loc35)
    %31 = arith.mulf %30, %cst_35 : tensor<512xf64> loc(#loc35)
    %cst_36 = arith.constant 0.95454545454545458 : f64 loc(#loc36)
    %cst_37 = arith.constant dense<0.95454545454545458> : tensor<1xf64> loc(#loc36)
    %cst_38 = arith.constant dense<0.95454545454545458> : tensor<512xf64> loc(#loc37)
    %32 = arith.subf %cst_38, %31 : tensor<512xf64> loc(#loc37)
    %33 = arith.select %24, %27, %32 : tensor<512xi1>, tensor<512xf64> loc(#loc38)
    %cst_39 = arith.constant 1.000000e+04 : f64 loc(#loc39)
    %cst_40 = arith.constant dense<1.000000e+04> : tensor<1xf64> loc(#loc39)
    %cst_41 = arith.constant dense<1.000000e+04> : tensor<512xf64> loc(#loc40)
    %cst_42 = arith.constant dense<1.000000e+04> : tensor<512xf64> loc(#loc40)
    %34 = tt.extern_elementwise %cst_42, %33 {libname = "", libpath = "", pure = true, symbol = "__nv_pow"} : (tensor<512xf64>, tensor<512xf64>) -> tensor<512xf64> loc(#loc40)
    %c1_i32 = arith.constant 1 : i32 loc(#loc41)
    %cst_43 = arith.constant dense<1> : tensor<1xi32> loc(#loc41)
    %35 = arith.sitofp %cst_43 : tensor<1xi32> to tensor<1xf64> loc(#loc42)
    %36 = tt.broadcast %35 : tensor<1xf64> -> tensor<512xf64> loc(#loc42)
    %37 = arith.divf %36, %34 : tensor<512xf64> loc(#loc42)
    %cst_44 = arith.constant 1.000000e+00 : f64 loc(#loc43)
    %cst_45 = arith.constant dense<1.000000e+00> : tensor<1xf64> loc(#loc43)
    %cst_46 = arith.constant dense<1.000000e+00> : tensor<512xf64> loc(#loc44)
    %38 = arith.mulf %37, %cst_46 : tensor<512xf64> loc(#loc44)
    %39 = arith.mulf %22, %38 : tensor<512xf64> loc(#loc45)
    %40 = tt.extern_elementwise %39 {libname = "", libpath = "", pure = true, symbol = "__nv_cos"} : (tensor<512xf64>) -> tensor<512xf64> loc(#loc46)
    %cst_47 = arith.constant 0.000000e+00 : f64 loc(#loc47)
    %cst_48 = arith.constant dense<0.000000e+00> : tensor<512xf64> loc(#loc47)
    %41 = arith.select %17, %40, %cst_48 : tensor<512xi1>, tensor<512xf64> loc(#loc48)
    %42 = arith.extsi %7 : tensor<512xi32> to tensor<512xi64> loc(#loc49)
    %cst_49 = arith.constant dense<1> : tensor<512xi64> loc(#loc49)
    %43 = arith.cmpi sge, %42, %cst_49 : tensor<512xi64> loc(#loc49)
    %c2_i64 = arith.constant 2 : i64 loc(#loc50)
    %cst_50 = arith.constant dense<2> : tensor<1xi64> loc(#loc50)
    %44 = arith.extsi %7 : tensor<512xi32> to tensor<512xi64> loc(#loc51)
    %cst_51 = arith.constant dense<2> : tensor<512xi64> loc(#loc51)
    %45 = arith.cmpi slt, %44, %cst_51 : tensor<512xi64> loc(#loc51)
    %46 = arith.andi %43, %45 : tensor<512xi1> loc(#loc52)
    %47 = arith.andi %46, %12 : tensor<512xi1> loc(#loc53)
    %c3_i32_52 = arith.constant 3 : i32 loc(#loc54)
    %c3_i32_53 = arith.constant 3 : i32 loc(#loc54)
    %cst_54 = arith.constant dense<3> : tensor<512xi32> loc(#loc54)
    %48 = arith.muli %cst_54, %8 : tensor<512xi32> loc(#loc54)
    %49 = tt.splat %arg0 : !tt.ptr<f32> -> tensor<512x!tt.ptr<f32>> loc(#loc55)
    %50 = tt.addptr %49, %48 : tensor<512x!tt.ptr<f32>>, tensor<512xi32> loc(#loc55)
    %cst_55 = arith.constant 0.000000e+00 : f32 loc(#loc56)
    %cst_56 = arith.constant dense<0.000000e+00> : tensor<512xf32> loc(#loc56)
    %51 = tt.load %50, %47, %cst_56 evictionPolicy = evict_last : tensor<512x!tt.ptr<f32>> loc(#loc56)
    %52 = arith.extf %51 : tensor<512xf32> to tensor<512xf64> loc(#loc57)
    %53 = arith.sitofp %6 : tensor<512xi32> to tensor<512xf32> loc(#loc58)
    %cst_57 = arith.constant 1.100000e+01 : f32 loc(#loc59)
    %cst_58 = arith.constant dense<1.100000e+01> : tensor<512xf32> loc(#loc60)
    %54 = arith.cmpf olt, %53, %cst_58 : tensor<512xf32> loc(#loc60)
    %55 = arith.sitofp %6 : tensor<512xi32> to tensor<512xf64> loc(#loc61)
    %cst_59 = arith.constant 0.045454545454545456 : f64 loc(#loc62)
    %cst_60 = arith.constant dense<0.045454545454545456> : tensor<1xf64> loc(#loc62)
    %cst_61 = arith.constant dense<0.045454545454545456> : tensor<512xf64> loc(#loc63)
    %56 = arith.mulf %55, %cst_61 : tensor<512xf64> loc(#loc63)
    %cst_62 = arith.constant 0.000000e+00 : f64 loc(#loc64)
    %cst_63 = arith.constant dense<0.000000e+00> : tensor<1xf64> loc(#loc64)
    %cst_64 = arith.constant dense<0.000000e+00> : tensor<512xf64> loc(#loc65)
    %57 = arith.addf %56, %cst_64 : tensor<512xf64> loc(#loc65)
    %c-1_i32_65 = arith.constant -1 : i32 loc(#loc66)
    %c-1_i32_66 = arith.constant -1 : i32 loc(#loc66)
    %cst_67 = arith.constant dense<-1> : tensor<512xi32> loc(#loc66)
    %58 = arith.muli %cst_67, %6 : tensor<512xi32> loc(#loc66)
    %c21_i32_68 = arith.constant 21 : i32 loc(#loc67)
    %c21_i32_69 = arith.constant 21 : i32 loc(#loc67)
    %cst_70 = arith.constant dense<21> : tensor<512xi32> loc(#loc67)
    %59 = arith.addi %cst_70, %58 : tensor<512xi32> loc(#loc67)
    %60 = arith.sitofp %59 : tensor<512xi32> to tensor<512xf64> loc(#loc68)
    %cst_71 = arith.constant dense<0.045454545454545456> : tensor<512xf64> loc(#loc69)
    %61 = arith.mulf %60, %cst_71 : tensor<512xf64> loc(#loc69)
    %cst_72 = arith.constant 0.95454545454545458 : f64 loc(#loc70)
    %cst_73 = arith.constant dense<0.95454545454545458> : tensor<1xf64> loc(#loc70)
    %cst_74 = arith.constant dense<0.95454545454545458> : tensor<512xf64> loc(#loc71)
    %62 = arith.subf %cst_74, %61 : tensor<512xf64> loc(#loc71)
    %63 = arith.select %54, %57, %62 : tensor<512xi1>, tensor<512xf64> loc(#loc72)
    %cst_75 = arith.constant 1.000000e+04 : f64 loc(#loc73)
    %cst_76 = arith.constant dense<1.000000e+04> : tensor<1xf64> loc(#loc73)
    %cst_77 = arith.constant dense<1.000000e+04> : tensor<512xf64> loc(#loc74)
    %cst_78 = arith.constant dense<1.000000e+04> : tensor<512xf64> loc(#loc74)
    %64 = tt.extern_elementwise %cst_78, %63 {libname = "", libpath = "", pure = true, symbol = "__nv_pow"} : (tensor<512xf64>, tensor<512xf64>) -> tensor<512xf64> loc(#loc74)
    %c1_i32_79 = arith.constant 1 : i32 loc(#loc75)
    %cst_80 = arith.constant dense<1> : tensor<1xi32> loc(#loc75)
    %65 = arith.sitofp %cst_80 : tensor<1xi32> to tensor<1xf64> loc(#loc76)
    %66 = tt.broadcast %65 : tensor<1xf64> -> tensor<512xf64> loc(#loc76)
    %67 = arith.divf %66, %64 : tensor<512xf64> loc(#loc76)
    %cst_81 = arith.constant 1.000000e+00 : f64 loc(#loc77)
    %cst_82 = arith.constant dense<1.000000e+00> : tensor<1xf64> loc(#loc77)
    %cst_83 = arith.constant dense<1.000000e+00> : tensor<512xf64> loc(#loc78)
    %68 = arith.mulf %67, %cst_83 : tensor<512xf64> loc(#loc78)
    %69 = arith.mulf %52, %68 : tensor<512xf64> loc(#loc79)
    %70 = tt.extern_elementwise %69 {libname = "", libpath = "", pure = true, symbol = "__nv_sin"} : (tensor<512xf64>) -> tensor<512xf64> loc(#loc80)
    %cst_84 = arith.constant 0.000000e+00 : f64 loc(#loc81)
    %cst_85 = arith.constant dense<0.000000e+00> : tensor<512xf64> loc(#loc81)
    %71 = arith.subf %cst_85, %70 : tensor<512xf64> loc(#loc81)
    %cst_86 = arith.constant 0.000000e+00 : f64 loc(#loc82)
    %cst_87 = arith.constant dense<0.000000e+00> : tensor<512xf64> loc(#loc82)
    %72 = arith.select %47, %71, %cst_87 : tensor<512xi1>, tensor<512xf64> loc(#loc83)
    %73 = arith.extsi %7 : tensor<512xi32> to tensor<512xi64> loc(#loc84)
    %cst_88 = arith.constant dense<2> : tensor<512xi64> loc(#loc84)
    %74 = arith.cmpi sge, %73, %cst_88 : tensor<512xi64> loc(#loc84)
    %c3_i64 = arith.constant 3 : i64 loc(#loc85)
    %cst_89 = arith.constant dense<3> : tensor<1xi64> loc(#loc85)
    %75 = arith.extsi %7 : tensor<512xi32> to tensor<512xi64> loc(#loc86)
    %cst_90 = arith.constant dense<3> : tensor<512xi64> loc(#loc86)
    %76 = arith.cmpi slt, %75, %cst_90 : tensor<512xi64> loc(#loc86)
    %77 = arith.andi %74, %76 : tensor<512xi1> loc(#loc87)
    %78 = arith.andi %77, %12 : tensor<512xi1> loc(#loc88)
    %c3_i32_91 = arith.constant 3 : i32 loc(#loc89)
    %c3_i32_92 = arith.constant 3 : i32 loc(#loc89)
    %cst_93 = arith.constant dense<3> : tensor<512xi32> loc(#loc89)
    %79 = arith.muli %cst_93, %8 : tensor<512xi32> loc(#loc89)
    %80 = tt.splat %arg0 : !tt.ptr<f32> -> tensor<512x!tt.ptr<f32>> loc(#loc90)
    %81 = tt.addptr %80, %79 : tensor<512x!tt.ptr<f32>>, tensor<512xi32> loc(#loc90)
    %cst_94 = arith.constant 0.000000e+00 : f32 loc(#loc91)
    %cst_95 = arith.constant dense<0.000000e+00> : tensor<512xf32> loc(#loc91)
    %82 = tt.load %81, %78, %cst_95 evictionPolicy = evict_last : tensor<512x!tt.ptr<f32>> loc(#loc91)
    %83 = arith.extf %82 : tensor<512xf32> to tensor<512xf64> loc(#loc92)
    %84 = arith.sitofp %6 : tensor<512xi32> to tensor<512xf32> loc(#loc93)
    %cst_96 = arith.constant 1.100000e+01 : f32 loc(#loc94)
    %cst_97 = arith.constant dense<1.100000e+01> : tensor<512xf32> loc(#loc95)
    %85 = arith.cmpf olt, %84, %cst_97 : tensor<512xf32> loc(#loc95)
    %86 = arith.sitofp %6 : tensor<512xi32> to tensor<512xf64> loc(#loc96)
    %cst_98 = arith.constant 0.045454545454545456 : f64 loc(#loc97)
    %cst_99 = arith.constant dense<0.045454545454545456> : tensor<1xf64> loc(#loc97)
    %cst_100 = arith.constant dense<0.045454545454545456> : tensor<512xf64> loc(#loc98)
    %87 = arith.mulf %86, %cst_100 : tensor<512xf64> loc(#loc98)
    %cst_101 = arith.constant 0.000000e+00 : f64 loc(#loc99)
    %cst_102 = arith.constant dense<0.000000e+00> : tensor<1xf64> loc(#loc99)
    %cst_103 = arith.constant dense<0.000000e+00> : tensor<512xf64> loc(#loc100)
    %88 = arith.addf %87, %cst_103 : tensor<512xf64> loc(#loc100)
    %c-1_i32_104 = arith.constant -1 : i32 loc(#loc101)
    %c-1_i32_105 = arith.constant -1 : i32 loc(#loc101)
    %cst_106 = arith.constant dense<-1> : tensor<512xi32> loc(#loc101)
    %89 = arith.muli %cst_106, %6 : tensor<512xi32> loc(#loc101)
    %c21_i32_107 = arith.constant 21 : i32 loc(#loc102)
    %c21_i32_108 = arith.constant 21 : i32 loc(#loc102)
    %cst_109 = arith.constant dense<21> : tensor<512xi32> loc(#loc102)
    %90 = arith.addi %cst_109, %89 : tensor<512xi32> loc(#loc102)
    %91 = arith.sitofp %90 : tensor<512xi32> to tensor<512xf64> loc(#loc103)
    %cst_110 = arith.constant dense<0.045454545454545456> : tensor<512xf64> loc(#loc104)
    %92 = arith.mulf %91, %cst_110 : tensor<512xf64> loc(#loc104)
    %cst_111 = arith.constant 0.95454545454545458 : f64 loc(#loc105)
    %cst_112 = arith.constant dense<0.95454545454545458> : tensor<1xf64> loc(#loc105)
    %cst_113 = arith.constant dense<0.95454545454545458> : tensor<512xf64> loc(#loc106)
    %93 = arith.subf %cst_113, %92 : tensor<512xf64> loc(#loc106)
    %94 = arith.select %85, %88, %93 : tensor<512xi1>, tensor<512xf64> loc(#loc107)
    %cst_114 = arith.constant 1.000000e+04 : f64 loc(#loc108)
    %cst_115 = arith.constant dense<1.000000e+04> : tensor<1xf64> loc(#loc108)
    %cst_116 = arith.constant dense<1.000000e+04> : tensor<512xf64> loc(#loc109)
    %cst_117 = arith.constant dense<1.000000e+04> : tensor<512xf64> loc(#loc109)
    %95 = tt.extern_elementwise %cst_117, %94 {libname = "", libpath = "", pure = true, symbol = "__nv_pow"} : (tensor<512xf64>, tensor<512xf64>) -> tensor<512xf64> loc(#loc109)
    %c1_i32_118 = arith.constant 1 : i32 loc(#loc110)
    %cst_119 = arith.constant dense<1> : tensor<1xi32> loc(#loc110)
    %96 = arith.sitofp %cst_119 : tensor<1xi32> to tensor<1xf64> loc(#loc111)
    %97 = tt.broadcast %96 : tensor<1xf64> -> tensor<512xf64> loc(#loc111)
    %98 = arith.divf %97, %95 : tensor<512xf64> loc(#loc111)
    %cst_120 = arith.constant 1.000000e+00 : f64 loc(#loc112)
    %cst_121 = arith.constant dense<1.000000e+00> : tensor<1xf64> loc(#loc112)
    %cst_122 = arith.constant dense<1.000000e+00> : tensor<512xf64> loc(#loc113)
    %99 = arith.mulf %98, %cst_122 : tensor<512xf64> loc(#loc113)
    %100 = arith.mulf %83, %99 : tensor<512xf64> loc(#loc114)
    %101 = tt.extern_elementwise %100 {libname = "", libpath = "", pure = true, symbol = "__nv_sin"} : (tensor<512xf64>) -> tensor<512xf64> loc(#loc115)
    %cst_123 = arith.constant 0.000000e+00 : f64 loc(#loc116)
    %cst_124 = arith.constant dense<0.000000e+00> : tensor<512xf64> loc(#loc116)
    %102 = arith.select %78, %101, %cst_124 : tensor<512xi1>, tensor<512xf64> loc(#loc117)
    %103 = arith.extsi %7 : tensor<512xi32> to tensor<512xi64> loc(#loc118)
    %cst_125 = arith.constant dense<3> : tensor<512xi64> loc(#loc118)
    %104 = arith.cmpi sge, %103, %cst_125 : tensor<512xi64> loc(#loc118)
    %c4_i64 = arith.constant 4 : i64 loc(#loc119)
    %cst_126 = arith.constant dense<4> : tensor<1xi64> loc(#loc119)
    %105 = arith.extsi %7 : tensor<512xi32> to tensor<512xi64> loc(#loc120)
    %cst_127 = arith.constant dense<4> : tensor<512xi64> loc(#loc120)
    %106 = arith.cmpi slt, %105, %cst_127 : tensor<512xi64> loc(#loc120)
    %107 = arith.andi %104, %12 : tensor<512xi1> loc(#loc121)
    %c3_i32_128 = arith.constant 3 : i32 loc(#loc122)
    %c3_i32_129 = arith.constant 3 : i32 loc(#loc122)
    %cst_130 = arith.constant dense<3> : tensor<512xi32> loc(#loc122)
    %108 = arith.muli %cst_130, %8 : tensor<512xi32> loc(#loc122)
    %109 = tt.splat %arg0 : !tt.ptr<f32> -> tensor<512x!tt.ptr<f32>> loc(#loc123)
    %110 = tt.addptr %109, %108 : tensor<512x!tt.ptr<f32>>, tensor<512xi32> loc(#loc123)
    %cst_131 = arith.constant 0.000000e+00 : f32 loc(#loc124)
    %cst_132 = arith.constant dense<0.000000e+00> : tensor<512xf32> loc(#loc124)
    %111 = tt.load %110, %107, %cst_132 evictionPolicy = evict_last : tensor<512x!tt.ptr<f32>> loc(#loc124)
    %112 = arith.extf %111 : tensor<512xf32> to tensor<512xf64> loc(#loc125)
    %113 = arith.sitofp %6 : tensor<512xi32> to tensor<512xf32> loc(#loc126)
    %cst_133 = arith.constant 1.100000e+01 : f32 loc(#loc127)
    %cst_134 = arith.constant dense<1.100000e+01> : tensor<512xf32> loc(#loc128)
    %114 = arith.cmpf olt, %113, %cst_134 : tensor<512xf32> loc(#loc128)
    %115 = arith.sitofp %6 : tensor<512xi32> to tensor<512xf64> loc(#loc129)
    %cst_135 = arith.constant 0.045454545454545456 : f64 loc(#loc130)
    %cst_136 = arith.constant dense<0.045454545454545456> : tensor<1xf64> loc(#loc130)
    %cst_137 = arith.constant dense<0.045454545454545456> : tensor<512xf64> loc(#loc131)
    %116 = arith.mulf %115, %cst_137 : tensor<512xf64> loc(#loc131)
    %cst_138 = arith.constant 0.000000e+00 : f64 loc(#loc132)
    %cst_139 = arith.constant dense<0.000000e+00> : tensor<1xf64> loc(#loc132)
    %cst_140 = arith.constant dense<0.000000e+00> : tensor<512xf64> loc(#loc133)
    %117 = arith.addf %116, %cst_140 : tensor<512xf64> loc(#loc133)
    %c-1_i32_141 = arith.constant -1 : i32 loc(#loc134)
    %c-1_i32_142 = arith.constant -1 : i32 loc(#loc134)
    %cst_143 = arith.constant dense<-1> : tensor<512xi32> loc(#loc134)
    %118 = arith.muli %cst_143, %6 : tensor<512xi32> loc(#loc134)
    %c21_i32_144 = arith.constant 21 : i32 loc(#loc135)
    %c21_i32_145 = arith.constant 21 : i32 loc(#loc135)
    %cst_146 = arith.constant dense<21> : tensor<512xi32> loc(#loc135)
    %119 = arith.addi %cst_146, %118 : tensor<512xi32> loc(#loc135)
    %120 = arith.sitofp %119 : tensor<512xi32> to tensor<512xf64> loc(#loc136)
    %cst_147 = arith.constant dense<0.045454545454545456> : tensor<512xf64> loc(#loc137)
    %121 = arith.mulf %120, %cst_147 : tensor<512xf64> loc(#loc137)
    %cst_148 = arith.constant 0.95454545454545458 : f64 loc(#loc138)
    %cst_149 = arith.constant dense<0.95454545454545458> : tensor<1xf64> loc(#loc138)
    %cst_150 = arith.constant dense<0.95454545454545458> : tensor<512xf64> loc(#loc139)
    %122 = arith.subf %cst_150, %121 : tensor<512xf64> loc(#loc139)
    %123 = arith.select %114, %117, %122 : tensor<512xi1>, tensor<512xf64> loc(#loc140)
    %cst_151 = arith.constant 1.000000e+04 : f64 loc(#loc141)
    %cst_152 = arith.constant dense<1.000000e+04> : tensor<1xf64> loc(#loc141)
    %cst_153 = arith.constant dense<1.000000e+04> : tensor<512xf64> loc(#loc142)
    %cst_154 = arith.constant dense<1.000000e+04> : tensor<512xf64> loc(#loc142)
    %124 = tt.extern_elementwise %cst_154, %123 {libname = "", libpath = "", pure = true, symbol = "__nv_pow"} : (tensor<512xf64>, tensor<512xf64>) -> tensor<512xf64> loc(#loc142)
    %c1_i32_155 = arith.constant 1 : i32 loc(#loc143)
    %cst_156 = arith.constant dense<1> : tensor<1xi32> loc(#loc143)
    %125 = arith.sitofp %cst_156 : tensor<1xi32> to tensor<1xf64> loc(#loc144)
    %126 = tt.broadcast %125 : tensor<1xf64> -> tensor<512xf64> loc(#loc144)
    %127 = arith.divf %126, %124 : tensor<512xf64> loc(#loc144)
    %cst_157 = arith.constant 1.000000e+00 : f64 loc(#loc145)
    %cst_158 = arith.constant dense<1.000000e+00> : tensor<1xf64> loc(#loc145)
    %cst_159 = arith.constant dense<1.000000e+00> : tensor<512xf64> loc(#loc146)
    %128 = arith.mulf %127, %cst_159 : tensor<512xf64> loc(#loc146)
    %129 = arith.mulf %112, %128 : tensor<512xf64> loc(#loc147)
    %130 = tt.extern_elementwise %129 {libname = "", libpath = "", pure = true, symbol = "__nv_cos"} : (tensor<512xf64>) -> tensor<512xf64> loc(#loc148)
    %cst_160 = arith.constant 0.000000e+00 : f64 loc(#loc149)
    %cst_161 = arith.constant dense<0.000000e+00> : tensor<512xf64> loc(#loc149)
    %131 = arith.select %107, %130, %cst_161 : tensor<512xi1>, tensor<512xf64> loc(#loc150)
    %132 = arith.select %77, %102, %131 : tensor<512xi1>, tensor<512xf64> loc(#loc151)
    %133 = arith.select %46, %72, %132 : tensor<512xi1>, tensor<512xf64> loc(#loc152)
    %134 = arith.select %16, %41, %133 : tensor<512xi1>, tensor<512xf64> loc(#loc153)
    %135 = arith.truncf %134 : tensor<512xf64> to tensor<512xf32> loc(#loc154)
    %cst_162 = arith.constant 0.000000e+00 : f32 loc(#loc155)
    %cst_163 = arith.constant dense<0.000000e+00> : tensor<512xf32> loc(#loc155)
    %136 = arith.select %12, %135, %cst_163 : tensor<512xi1>, tensor<512xf32> loc(#loc156)
    %137 = arith.extsi %6 : tensor<512xi32> to tensor<512xi64> loc(#loc157)
    %cst_164 = arith.constant dense<22> : tensor<512xi64> loc(#loc157)
    %138 = arith.cmpi sge, %137, %cst_164 : tensor<512xi64> loc(#loc157)
    %c43_i64 = arith.constant 43 : i64 loc(#loc158)
    %cst_165 = arith.constant dense<43> : tensor<1xi64> loc(#loc158)
    %139 = arith.extsi %6 : tensor<512xi32> to tensor<512xi64> loc(#loc159)
    %cst_166 = arith.constant dense<43> : tensor<512xi64> loc(#loc159)
    %140 = arith.cmpi slt, %139, %cst_166 : tensor<512xi64> loc(#loc159)
    %141 = arith.andi %138, %140 : tensor<512xi1> loc(#loc160)
    %c0_i64_167 = arith.constant 0 : i64 loc(#loc161)
    %cst_168 = arith.constant dense<0> : tensor<1xi64> loc(#loc161)
    %142 = arith.extsi %7 : tensor<512xi32> to tensor<512xi64> loc(#loc162)
    %cst_169 = arith.constant dense<0> : tensor<512xi64> loc(#loc162)
    %143 = arith.cmpi sge, %142, %cst_169 : tensor<512xi64> loc(#loc162)
    %c1_i64_170 = arith.constant 1 : i64 loc(#loc163)
    %cst_171 = arith.constant dense<1> : tensor<1xi64> loc(#loc163)
    %144 = arith.extsi %7 : tensor<512xi32> to tensor<512xi64> loc(#loc164)
    %cst_172 = arith.constant dense<1> : tensor<512xi64> loc(#loc164)
    %145 = arith.cmpi slt, %144, %cst_172 : tensor<512xi64> loc(#loc164)
    %146 = arith.andi %145, %141 : tensor<512xi1> loc(#loc165)
    %c3_i32_173 = arith.constant 3 : i32 loc(#loc166)
    %c3_i32_174 = arith.constant 3 : i32 loc(#loc166)
    %cst_175 = arith.constant dense<3> : tensor<512xi32> loc(#loc166)
    %147 = arith.muli %cst_175, %8 : tensor<512xi32> loc(#loc166)
    %c1_i32_176 = arith.constant 1 : i32 loc(#loc167)
    %c1_i32_177 = arith.constant 1 : i32 loc(#loc167)
    %cst_178 = arith.constant dense<1> : tensor<512xi32> loc(#loc167)
    %148 = arith.addi %cst_178, %147 : tensor<512xi32> loc(#loc167)
    %149 = tt.splat %arg0 : !tt.ptr<f32> -> tensor<512x!tt.ptr<f32>> loc(#loc168)
    %150 = tt.addptr %149, %148 : tensor<512x!tt.ptr<f32>>, tensor<512xi32> loc(#loc168)
    %cst_179 = arith.constant 0.000000e+00 : f32 loc(#loc169)
    %cst_180 = arith.constant dense<0.000000e+00> : tensor<512xf32> loc(#loc169)
    %151 = tt.load %150, %146, %cst_180 evictionPolicy = evict_last : tensor<512x!tt.ptr<f32>> loc(#loc169)
    %152 = arith.extf %151 : tensor<512xf32> to tensor<512xf64> loc(#loc170)
    %c-22_i32 = arith.constant -22 : i32 loc(#loc171)
    %c-22_i32_181 = arith.constant -22 : i32 loc(#loc171)
    %cst_182 = arith.constant dense<-22> : tensor<512xi32> loc(#loc171)
    %153 = arith.addi %cst_182, %6 : tensor<512xi32> loc(#loc171)
    %154 = arith.sitofp %153 : tensor<512xi32> to tensor<512xf32> loc(#loc172)
    %cst_183 = arith.constant 1.050000e+01 : f32 loc(#loc173)
    %cst_184 = arith.constant dense<1.050000e+01> : tensor<512xf32> loc(#loc174)
    %155 = arith.cmpf olt, %154, %cst_184 : tensor<512xf32> loc(#loc174)
    %156 = arith.sitofp %153 : tensor<512xi32> to tensor<512xf64> loc(#loc175)
    %cst_185 = arith.constant 0.047619047619047616 : f64 loc(#loc176)
    %cst_186 = arith.constant dense<0.047619047619047616> : tensor<1xf64> loc(#loc176)
    %cst_187 = arith.constant dense<0.047619047619047616> : tensor<512xf64> loc(#loc177)
    %157 = arith.mulf %156, %cst_187 : tensor<512xf64> loc(#loc177)
    %cst_188 = arith.constant 0.000000e+00 : f64 loc(#loc178)
    %cst_189 = arith.constant dense<0.000000e+00> : tensor<1xf64> loc(#loc178)
    %cst_190 = arith.constant dense<0.000000e+00> : tensor<512xf64> loc(#loc179)
    %158 = arith.addf %157, %cst_190 : tensor<512xf64> loc(#loc179)
    %c-22_i32_191 = arith.constant -22 : i32 loc(#loc180)
    %c-22_i32_192 = arith.constant -22 : i32 loc(#loc180)
    %cst_193 = arith.constant dense<-22> : tensor<512xi32> loc(#loc180)
    %159 = arith.addi %cst_193, %6 : tensor<512xi32> loc(#loc180)
    %c-1_i32_194 = arith.constant -1 : i32 loc(#loc181)
    %c-1_i32_195 = arith.constant -1 : i32 loc(#loc181)
    %cst_196 = arith.constant dense<-1> : tensor<512xi32> loc(#loc181)
    %160 = arith.muli %cst_196, %159 : tensor<512xi32> loc(#loc181)
    %c20_i32 = arith.constant 20 : i32 loc(#loc182)
    %c20_i32_197 = arith.constant 20 : i32 loc(#loc182)
    %cst_198 = arith.constant dense<20> : tensor<512xi32> loc(#loc182)
    %161 = arith.addi %cst_198, %160 : tensor<512xi32> loc(#loc182)
    %162 = arith.sitofp %161 : tensor<512xi32> to tensor<512xf64> loc(#loc183)
    %cst_199 = arith.constant dense<0.047619047619047616> : tensor<512xf64> loc(#loc184)
    %163 = arith.mulf %162, %cst_199 : tensor<512xf64> loc(#loc184)
    %cst_200 = arith.constant 0.95238095238095233 : f64 loc(#loc185)
    %cst_201 = arith.constant dense<0.95238095238095233> : tensor<1xf64> loc(#loc185)
    %cst_202 = arith.constant dense<0.95238095238095233> : tensor<512xf64> loc(#loc186)
    %164 = arith.subf %cst_202, %163 : tensor<512xf64> loc(#loc186)
    %165 = arith.select %155, %158, %164 : tensor<512xi1>, tensor<512xf64> loc(#loc187)
    %cst_203 = arith.constant 1.000000e+04 : f64 loc(#loc188)
    %cst_204 = arith.constant dense<1.000000e+04> : tensor<1xf64> loc(#loc188)
    %cst_205 = arith.constant dense<1.000000e+04> : tensor<512xf64> loc(#loc189)
    %cst_206 = arith.constant dense<1.000000e+04> : tensor<512xf64> loc(#loc189)
    %166 = tt.extern_elementwise %cst_206, %165 {libname = "", libpath = "", pure = true, symbol = "__nv_pow"} : (tensor<512xf64>, tensor<512xf64>) -> tensor<512xf64> loc(#loc189)
    %c1_i32_207 = arith.constant 1 : i32 loc(#loc190)
    %cst_208 = arith.constant dense<1> : tensor<1xi32> loc(#loc190)
    %167 = arith.sitofp %cst_208 : tensor<1xi32> to tensor<1xf64> loc(#loc191)
    %168 = tt.broadcast %167 : tensor<1xf64> -> tensor<512xf64> loc(#loc191)
    %169 = arith.divf %168, %166 : tensor<512xf64> loc(#loc191)
    %cst_209 = arith.constant 1.000000e+00 : f64 loc(#loc192)
    %cst_210 = arith.constant dense<1.000000e+00> : tensor<1xf64> loc(#loc192)
    %cst_211 = arith.constant dense<1.000000e+00> : tensor<512xf64> loc(#loc193)
    %170 = arith.mulf %169, %cst_211 : tensor<512xf64> loc(#loc193)
    %171 = arith.mulf %152, %170 : tensor<512xf64> loc(#loc194)
    %172 = tt.extern_elementwise %171 {libname = "", libpath = "", pure = true, symbol = "__nv_cos"} : (tensor<512xf64>) -> tensor<512xf64> loc(#loc195)
    %cst_212 = arith.constant 0.000000e+00 : f64 loc(#loc196)
    %cst_213 = arith.constant dense<0.000000e+00> : tensor<512xf64> loc(#loc196)
    %173 = arith.select %146, %172, %cst_213 : tensor<512xi1>, tensor<512xf64> loc(#loc197)
    %174 = arith.extsi %7 : tensor<512xi32> to tensor<512xi64> loc(#loc198)
    %cst_214 = arith.constant dense<1> : tensor<512xi64> loc(#loc198)
    %175 = arith.cmpi sge, %174, %cst_214 : tensor<512xi64> loc(#loc198)
    %c2_i64_215 = arith.constant 2 : i64 loc(#loc199)
    %cst_216 = arith.constant dense<2> : tensor<1xi64> loc(#loc199)
    %176 = arith.extsi %7 : tensor<512xi32> to tensor<512xi64> loc(#loc200)
    %cst_217 = arith.constant dense<2> : tensor<512xi64> loc(#loc200)
    %177 = arith.cmpi slt, %176, %cst_217 : tensor<512xi64> loc(#loc200)
    %178 = arith.andi %175, %177 : tensor<512xi1> loc(#loc201)
    %179 = arith.andi %178, %141 : tensor<512xi1> loc(#loc202)
    %c3_i32_218 = arith.constant 3 : i32 loc(#loc203)
    %c3_i32_219 = arith.constant 3 : i32 loc(#loc203)
    %cst_220 = arith.constant dense<3> : tensor<512xi32> loc(#loc203)
    %180 = arith.muli %cst_220, %8 : tensor<512xi32> loc(#loc203)
    %c1_i32_221 = arith.constant 1 : i32 loc(#loc204)
    %c1_i32_222 = arith.constant 1 : i32 loc(#loc204)
    %cst_223 = arith.constant dense<1> : tensor<512xi32> loc(#loc204)
    %181 = arith.addi %cst_223, %180 : tensor<512xi32> loc(#loc204)
    %182 = tt.splat %arg0 : !tt.ptr<f32> -> tensor<512x!tt.ptr<f32>> loc(#loc205)
    %183 = tt.addptr %182, %181 : tensor<512x!tt.ptr<f32>>, tensor<512xi32> loc(#loc205)
    %cst_224 = arith.constant 0.000000e+00 : f32 loc(#loc206)
    %cst_225 = arith.constant dense<0.000000e+00> : tensor<512xf32> loc(#loc206)
    %184 = tt.load %183, %179, %cst_225 evictionPolicy = evict_last : tensor<512x!tt.ptr<f32>> loc(#loc206)
    %185 = arith.extf %184 : tensor<512xf32> to tensor<512xf64> loc(#loc207)
    %c-22_i32_226 = arith.constant -22 : i32 loc(#loc208)
    %c-22_i32_227 = arith.constant -22 : i32 loc(#loc208)
    %cst_228 = arith.constant dense<-22> : tensor<512xi32> loc(#loc208)
    %186 = arith.addi %cst_228, %6 : tensor<512xi32> loc(#loc208)
    %187 = arith.sitofp %186 : tensor<512xi32> to tensor<512xf32> loc(#loc209)
    %cst_229 = arith.constant 1.050000e+01 : f32 loc(#loc210)
    %cst_230 = arith.constant dense<1.050000e+01> : tensor<512xf32> loc(#loc211)
    %188 = arith.cmpf olt, %187, %cst_230 : tensor<512xf32> loc(#loc211)
    %189 = arith.sitofp %186 : tensor<512xi32> to tensor<512xf64> loc(#loc212)
    %cst_231 = arith.constant 0.047619047619047616 : f64 loc(#loc213)
    %cst_232 = arith.constant dense<0.047619047619047616> : tensor<1xf64> loc(#loc213)
    %cst_233 = arith.constant dense<0.047619047619047616> : tensor<512xf64> loc(#loc214)
    %190 = arith.mulf %189, %cst_233 : tensor<512xf64> loc(#loc214)
    %cst_234 = arith.constant 0.000000e+00 : f64 loc(#loc215)
    %cst_235 = arith.constant dense<0.000000e+00> : tensor<1xf64> loc(#loc215)
    %cst_236 = arith.constant dense<0.000000e+00> : tensor<512xf64> loc(#loc216)
    %191 = arith.addf %190, %cst_236 : tensor<512xf64> loc(#loc216)
    %c-22_i32_237 = arith.constant -22 : i32 loc(#loc217)
    %c-22_i32_238 = arith.constant -22 : i32 loc(#loc217)
    %cst_239 = arith.constant dense<-22> : tensor<512xi32> loc(#loc217)
    %192 = arith.addi %cst_239, %6 : tensor<512xi32> loc(#loc217)
    %c-1_i32_240 = arith.constant -1 : i32 loc(#loc218)
    %c-1_i32_241 = arith.constant -1 : i32 loc(#loc218)
    %cst_242 = arith.constant dense<-1> : tensor<512xi32> loc(#loc218)
    %193 = arith.muli %cst_242, %192 : tensor<512xi32> loc(#loc218)
    %c20_i32_243 = arith.constant 20 : i32 loc(#loc219)
    %c20_i32_244 = arith.constant 20 : i32 loc(#loc219)
    %cst_245 = arith.constant dense<20> : tensor<512xi32> loc(#loc219)
    %194 = arith.addi %cst_245, %193 : tensor<512xi32> loc(#loc219)
    %195 = arith.sitofp %194 : tensor<512xi32> to tensor<512xf64> loc(#loc220)
    %cst_246 = arith.constant dense<0.047619047619047616> : tensor<512xf64> loc(#loc221)
    %196 = arith.mulf %195, %cst_246 : tensor<512xf64> loc(#loc221)
    %cst_247 = arith.constant 0.95238095238095233 : f64 loc(#loc222)
    %cst_248 = arith.constant dense<0.95238095238095233> : tensor<1xf64> loc(#loc222)
    %cst_249 = arith.constant dense<0.95238095238095233> : tensor<512xf64> loc(#loc223)
    %197 = arith.subf %cst_249, %196 : tensor<512xf64> loc(#loc223)
    %198 = arith.select %188, %191, %197 : tensor<512xi1>, tensor<512xf64> loc(#loc224)
    %cst_250 = arith.constant 1.000000e+04 : f64 loc(#loc225)
    %cst_251 = arith.constant dense<1.000000e+04> : tensor<1xf64> loc(#loc225)
    %cst_252 = arith.constant dense<1.000000e+04> : tensor<512xf64> loc(#loc226)
    %cst_253 = arith.constant dense<1.000000e+04> : tensor<512xf64> loc(#loc226)
    %199 = tt.extern_elementwise %cst_253, %198 {libname = "", libpath = "", pure = true, symbol = "__nv_pow"} : (tensor<512xf64>, tensor<512xf64>) -> tensor<512xf64> loc(#loc226)
    %c1_i32_254 = arith.constant 1 : i32 loc(#loc227)
    %cst_255 = arith.constant dense<1> : tensor<1xi32> loc(#loc227)
    %200 = arith.sitofp %cst_255 : tensor<1xi32> to tensor<1xf64> loc(#loc228)
    %201 = tt.broadcast %200 : tensor<1xf64> -> tensor<512xf64> loc(#loc228)
    %202 = arith.divf %201, %199 : tensor<512xf64> loc(#loc228)
    %cst_256 = arith.constant 1.000000e+00 : f64 loc(#loc229)
    %cst_257 = arith.constant dense<1.000000e+00> : tensor<1xf64> loc(#loc229)
    %cst_258 = arith.constant dense<1.000000e+00> : tensor<512xf64> loc(#loc230)
    %203 = arith.mulf %202, %cst_258 : tensor<512xf64> loc(#loc230)
    %204 = arith.mulf %185, %203 : tensor<512xf64> loc(#loc231)
    %205 = tt.extern_elementwise %204 {libname = "", libpath = "", pure = true, symbol = "__nv_sin"} : (tensor<512xf64>) -> tensor<512xf64> loc(#loc232)
    %cst_259 = arith.constant 0.000000e+00 : f64 loc(#loc233)
    %cst_260 = arith.constant dense<0.000000e+00> : tensor<512xf64> loc(#loc233)
    %206 = arith.subf %cst_260, %205 : tensor<512xf64> loc(#loc233)
    %cst_261 = arith.constant 0.000000e+00 : f64 loc(#loc234)
    %cst_262 = arith.constant dense<0.000000e+00> : tensor<512xf64> loc(#loc234)
    %207 = arith.select %179, %206, %cst_262 : tensor<512xi1>, tensor<512xf64> loc(#loc235)
    %208 = arith.extsi %7 : tensor<512xi32> to tensor<512xi64> loc(#loc236)
    %cst_263 = arith.constant dense<2> : tensor<512xi64> loc(#loc236)
    %209 = arith.cmpi sge, %208, %cst_263 : tensor<512xi64> loc(#loc236)
    %c3_i64_264 = arith.constant 3 : i64 loc(#loc237)
    %cst_265 = arith.constant dense<3> : tensor<1xi64> loc(#loc237)
    %210 = arith.extsi %7 : tensor<512xi32> to tensor<512xi64> loc(#loc238)
    %cst_266 = arith.constant dense<3> : tensor<512xi64> loc(#loc238)
    %211 = arith.cmpi slt, %210, %cst_266 : tensor<512xi64> loc(#loc238)
    %212 = arith.andi %209, %211 : tensor<512xi1> loc(#loc239)
    %213 = arith.andi %212, %141 : tensor<512xi1> loc(#loc240)
    %c3_i32_267 = arith.constant 3 : i32 loc(#loc241)
    %c3_i32_268 = arith.constant 3 : i32 loc(#loc241)
    %cst_269 = arith.constant dense<3> : tensor<512xi32> loc(#loc241)
    %214 = arith.muli %cst_269, %8 : tensor<512xi32> loc(#loc241)
    %c1_i32_270 = arith.constant 1 : i32 loc(#loc242)
    %c1_i32_271 = arith.constant 1 : i32 loc(#loc242)
    %cst_272 = arith.constant dense<1> : tensor<512xi32> loc(#loc242)
    %215 = arith.addi %cst_272, %214 : tensor<512xi32> loc(#loc242)
    %216 = tt.splat %arg0 : !tt.ptr<f32> -> tensor<512x!tt.ptr<f32>> loc(#loc243)
    %217 = tt.addptr %216, %215 : tensor<512x!tt.ptr<f32>>, tensor<512xi32> loc(#loc243)
    %cst_273 = arith.constant 0.000000e+00 : f32 loc(#loc244)
    %cst_274 = arith.constant dense<0.000000e+00> : tensor<512xf32> loc(#loc244)
    %218 = tt.load %217, %213, %cst_274 evictionPolicy = evict_last : tensor<512x!tt.ptr<f32>> loc(#loc244)
    %219 = arith.extf %218 : tensor<512xf32> to tensor<512xf64> loc(#loc245)
    %c-22_i32_275 = arith.constant -22 : i32 loc(#loc246)
    %c-22_i32_276 = arith.constant -22 : i32 loc(#loc246)
    %cst_277 = arith.constant dense<-22> : tensor<512xi32> loc(#loc246)
    %220 = arith.addi %cst_277, %6 : tensor<512xi32> loc(#loc246)
    %221 = arith.sitofp %220 : tensor<512xi32> to tensor<512xf32> loc(#loc247)
    %cst_278 = arith.constant 1.050000e+01 : f32 loc(#loc248)
    %cst_279 = arith.constant dense<1.050000e+01> : tensor<512xf32> loc(#loc249)
    %222 = arith.cmpf olt, %221, %cst_279 : tensor<512xf32> loc(#loc249)
    %223 = arith.sitofp %220 : tensor<512xi32> to tensor<512xf64> loc(#loc250)
    %cst_280 = arith.constant 0.047619047619047616 : f64 loc(#loc251)
    %cst_281 = arith.constant dense<0.047619047619047616> : tensor<1xf64> loc(#loc251)
    %cst_282 = arith.constant dense<0.047619047619047616> : tensor<512xf64> loc(#loc252)
    %224 = arith.mulf %223, %cst_282 : tensor<512xf64> loc(#loc252)
    %cst_283 = arith.constant 0.000000e+00 : f64 loc(#loc253)
    %cst_284 = arith.constant dense<0.000000e+00> : tensor<1xf64> loc(#loc253)
    %cst_285 = arith.constant dense<0.000000e+00> : tensor<512xf64> loc(#loc254)
    %225 = arith.addf %224, %cst_285 : tensor<512xf64> loc(#loc254)
    %c-22_i32_286 = arith.constant -22 : i32 loc(#loc255)
    %c-22_i32_287 = arith.constant -22 : i32 loc(#loc255)
    %cst_288 = arith.constant dense<-22> : tensor<512xi32> loc(#loc255)
    %226 = arith.addi %cst_288, %6 : tensor<512xi32> loc(#loc255)
    %c-1_i32_289 = arith.constant -1 : i32 loc(#loc256)
    %c-1_i32_290 = arith.constant -1 : i32 loc(#loc256)
    %cst_291 = arith.constant dense<-1> : tensor<512xi32> loc(#loc256)
    %227 = arith.muli %cst_291, %226 : tensor<512xi32> loc(#loc256)
    %c20_i32_292 = arith.constant 20 : i32 loc(#loc257)
    %c20_i32_293 = arith.constant 20 : i32 loc(#loc257)
    %cst_294 = arith.constant dense<20> : tensor<512xi32> loc(#loc257)
    %228 = arith.addi %cst_294, %227 : tensor<512xi32> loc(#loc257)
    %229 = arith.sitofp %228 : tensor<512xi32> to tensor<512xf64> loc(#loc258)
    %cst_295 = arith.constant dense<0.047619047619047616> : tensor<512xf64> loc(#loc259)
    %230 = arith.mulf %229, %cst_295 : tensor<512xf64> loc(#loc259)
    %cst_296 = arith.constant 0.95238095238095233 : f64 loc(#loc260)
    %cst_297 = arith.constant dense<0.95238095238095233> : tensor<1xf64> loc(#loc260)
    %cst_298 = arith.constant dense<0.95238095238095233> : tensor<512xf64> loc(#loc261)
    %231 = arith.subf %cst_298, %230 : tensor<512xf64> loc(#loc261)
    %232 = arith.select %222, %225, %231 : tensor<512xi1>, tensor<512xf64> loc(#loc262)
    %cst_299 = arith.constant 1.000000e+04 : f64 loc(#loc263)
    %cst_300 = arith.constant dense<1.000000e+04> : tensor<1xf64> loc(#loc263)
    %cst_301 = arith.constant dense<1.000000e+04> : tensor<512xf64> loc(#loc264)
    %cst_302 = arith.constant dense<1.000000e+04> : tensor<512xf64> loc(#loc264)
    %233 = tt.extern_elementwise %cst_302, %232 {libname = "", libpath = "", pure = true, symbol = "__nv_pow"} : (tensor<512xf64>, tensor<512xf64>) -> tensor<512xf64> loc(#loc264)
    %c1_i32_303 = arith.constant 1 : i32 loc(#loc265)
    %cst_304 = arith.constant dense<1> : tensor<1xi32> loc(#loc265)
    %234 = arith.sitofp %cst_304 : tensor<1xi32> to tensor<1xf64> loc(#loc266)
    %235 = tt.broadcast %234 : tensor<1xf64> -> tensor<512xf64> loc(#loc266)
    %236 = arith.divf %235, %233 : tensor<512xf64> loc(#loc266)
    %cst_305 = arith.constant 1.000000e+00 : f64 loc(#loc267)
    %cst_306 = arith.constant dense<1.000000e+00> : tensor<1xf64> loc(#loc267)
    %cst_307 = arith.constant dense<1.000000e+00> : tensor<512xf64> loc(#loc268)
    %237 = arith.mulf %236, %cst_307 : tensor<512xf64> loc(#loc268)
    %238 = arith.mulf %219, %237 : tensor<512xf64> loc(#loc269)
    %239 = tt.extern_elementwise %238 {libname = "", libpath = "", pure = true, symbol = "__nv_sin"} : (tensor<512xf64>) -> tensor<512xf64> loc(#loc270)
    %cst_308 = arith.constant 0.000000e+00 : f64 loc(#loc271)
    %cst_309 = arith.constant dense<0.000000e+00> : tensor<512xf64> loc(#loc271)
    %240 = arith.select %213, %239, %cst_309 : tensor<512xi1>, tensor<512xf64> loc(#loc272)
    %241 = arith.extsi %7 : tensor<512xi32> to tensor<512xi64> loc(#loc273)
    %cst_310 = arith.constant dense<3> : tensor<512xi64> loc(#loc273)
    %242 = arith.cmpi sge, %241, %cst_310 : tensor<512xi64> loc(#loc273)
    %c4_i64_311 = arith.constant 4 : i64 loc(#loc274)
    %cst_312 = arith.constant dense<4> : tensor<1xi64> loc(#loc274)
    %243 = arith.extsi %7 : tensor<512xi32> to tensor<512xi64> loc(#loc275)
    %cst_313 = arith.constant dense<4> : tensor<512xi64> loc(#loc275)
    %244 = arith.cmpi slt, %243, %cst_313 : tensor<512xi64> loc(#loc275)
    %245 = arith.andi %242, %141 : tensor<512xi1> loc(#loc276)
    %c3_i32_314 = arith.constant 3 : i32 loc(#loc277)
    %c3_i32_315 = arith.constant 3 : i32 loc(#loc277)
    %cst_316 = arith.constant dense<3> : tensor<512xi32> loc(#loc277)
    %246 = arith.muli %cst_316, %8 : tensor<512xi32> loc(#loc277)
    %c1_i32_317 = arith.constant 1 : i32 loc(#loc278)
    %c1_i32_318 = arith.constant 1 : i32 loc(#loc278)
    %cst_319 = arith.constant dense<1> : tensor<512xi32> loc(#loc278)
    %247 = arith.addi %cst_319, %246 : tensor<512xi32> loc(#loc278)
    %248 = tt.splat %arg0 : !tt.ptr<f32> -> tensor<512x!tt.ptr<f32>> loc(#loc279)
    %249 = tt.addptr %248, %247 : tensor<512x!tt.ptr<f32>>, tensor<512xi32> loc(#loc279)
    %cst_320 = arith.constant 0.000000e+00 : f32 loc(#loc280)
    %cst_321 = arith.constant dense<0.000000e+00> : tensor<512xf32> loc(#loc280)
    %250 = tt.load %249, %245, %cst_321 evictionPolicy = evict_last : tensor<512x!tt.ptr<f32>> loc(#loc280)
    %251 = arith.extf %250 : tensor<512xf32> to tensor<512xf64> loc(#loc281)
    %c-22_i32_322 = arith.constant -22 : i32 loc(#loc282)
    %c-22_i32_323 = arith.constant -22 : i32 loc(#loc282)
    %cst_324 = arith.constant dense<-22> : tensor<512xi32> loc(#loc282)
    %252 = arith.addi %cst_324, %6 : tensor<512xi32> loc(#loc282)
    %253 = arith.sitofp %252 : tensor<512xi32> to tensor<512xf32> loc(#loc283)
    %cst_325 = arith.constant 1.050000e+01 : f32 loc(#loc284)
    %cst_326 = arith.constant dense<1.050000e+01> : tensor<512xf32> loc(#loc285)
    %254 = arith.cmpf olt, %253, %cst_326 : tensor<512xf32> loc(#loc285)
    %255 = arith.sitofp %252 : tensor<512xi32> to tensor<512xf64> loc(#loc286)
    %cst_327 = arith.constant 0.047619047619047616 : f64 loc(#loc287)
    %cst_328 = arith.constant dense<0.047619047619047616> : tensor<1xf64> loc(#loc287)
    %cst_329 = arith.constant dense<0.047619047619047616> : tensor<512xf64> loc(#loc288)
    %256 = arith.mulf %255, %cst_329 : tensor<512xf64> loc(#loc288)
    %cst_330 = arith.constant 0.000000e+00 : f64 loc(#loc289)
    %cst_331 = arith.constant dense<0.000000e+00> : tensor<1xf64> loc(#loc289)
    %cst_332 = arith.constant dense<0.000000e+00> : tensor<512xf64> loc(#loc290)
    %257 = arith.addf %256, %cst_332 : tensor<512xf64> loc(#loc290)
    %c-22_i32_333 = arith.constant -22 : i32 loc(#loc291)
    %c-22_i32_334 = arith.constant -22 : i32 loc(#loc291)
    %cst_335 = arith.constant dense<-22> : tensor<512xi32> loc(#loc291)
    %258 = arith.addi %cst_335, %6 : tensor<512xi32> loc(#loc291)
    %c-1_i32_336 = arith.constant -1 : i32 loc(#loc292)
    %c-1_i32_337 = arith.constant -1 : i32 loc(#loc292)
    %cst_338 = arith.constant dense<-1> : tensor<512xi32> loc(#loc292)
    %259 = arith.muli %cst_338, %258 : tensor<512xi32> loc(#loc292)
    %c20_i32_339 = arith.constant 20 : i32 loc(#loc293)
    %c20_i32_340 = arith.constant 20 : i32 loc(#loc293)
    %cst_341 = arith.constant dense<20> : tensor<512xi32> loc(#loc293)
    %260 = arith.addi %cst_341, %259 : tensor<512xi32> loc(#loc293)
    %261 = arith.sitofp %260 : tensor<512xi32> to tensor<512xf64> loc(#loc294)
    %cst_342 = arith.constant dense<0.047619047619047616> : tensor<512xf64> loc(#loc295)
    %262 = arith.mulf %261, %cst_342 : tensor<512xf64> loc(#loc295)
    %cst_343 = arith.constant 0.95238095238095233 : f64 loc(#loc296)
    %cst_344 = arith.constant dense<0.95238095238095233> : tensor<1xf64> loc(#loc296)
    %cst_345 = arith.constant dense<0.95238095238095233> : tensor<512xf64> loc(#loc297)
    %263 = arith.subf %cst_345, %262 : tensor<512xf64> loc(#loc297)
    %264 = arith.select %254, %257, %263 : tensor<512xi1>, tensor<512xf64> loc(#loc298)
    %cst_346 = arith.constant 1.000000e+04 : f64 loc(#loc299)
    %cst_347 = arith.constant dense<1.000000e+04> : tensor<1xf64> loc(#loc299)
    %cst_348 = arith.constant dense<1.000000e+04> : tensor<512xf64> loc(#loc300)
    %cst_349 = arith.constant dense<1.000000e+04> : tensor<512xf64> loc(#loc300)
    %265 = tt.extern_elementwise %cst_349, %264 {libname = "", libpath = "", pure = true, symbol = "__nv_pow"} : (tensor<512xf64>, tensor<512xf64>) -> tensor<512xf64> loc(#loc300)
    %c1_i32_350 = arith.constant 1 : i32 loc(#loc301)
    %cst_351 = arith.constant dense<1> : tensor<1xi32> loc(#loc301)
    %266 = arith.sitofp %cst_351 : tensor<1xi32> to tensor<1xf64> loc(#loc302)
    %267 = tt.broadcast %266 : tensor<1xf64> -> tensor<512xf64> loc(#loc302)
    %268 = arith.divf %267, %265 : tensor<512xf64> loc(#loc302)
    %cst_352 = arith.constant 1.000000e+00 : f64 loc(#loc303)
    %cst_353 = arith.constant dense<1.000000e+00> : tensor<1xf64> loc(#loc303)
    %cst_354 = arith.constant dense<1.000000e+00> : tensor<512xf64> loc(#loc304)
    %269 = arith.mulf %268, %cst_354 : tensor<512xf64> loc(#loc304)
    %270 = arith.mulf %251, %269 : tensor<512xf64> loc(#loc305)
    %271 = tt.extern_elementwise %270 {libname = "", libpath = "", pure = true, symbol = "__nv_cos"} : (tensor<512xf64>) -> tensor<512xf64> loc(#loc306)
    %cst_355 = arith.constant 0.000000e+00 : f64 loc(#loc307)
    %cst_356 = arith.constant dense<0.000000e+00> : tensor<512xf64> loc(#loc307)
    %272 = arith.select %245, %271, %cst_356 : tensor<512xi1>, tensor<512xf64> loc(#loc308)
    %273 = arith.select %212, %240, %272 : tensor<512xi1>, tensor<512xf64> loc(#loc309)
    %274 = arith.select %178, %207, %273 : tensor<512xi1>, tensor<512xf64> loc(#loc310)
    %275 = arith.select %145, %173, %274 : tensor<512xi1>, tensor<512xf64> loc(#loc311)
    %276 = arith.truncf %275 : tensor<512xf64> to tensor<512xf32> loc(#loc312)
    %cst_357 = arith.constant 0.000000e+00 : f32 loc(#loc313)
    %cst_358 = arith.constant dense<0.000000e+00> : tensor<512xf32> loc(#loc313)
    %277 = arith.select %141, %276, %cst_358 : tensor<512xi1>, tensor<512xf32> loc(#loc314)
    %278 = arith.extsi %6 : tensor<512xi32> to tensor<512xi64> loc(#loc315)
    %cst_359 = arith.constant dense<43> : tensor<512xi64> loc(#loc315)
    %279 = arith.cmpi sge, %278, %cst_359 : tensor<512xi64> loc(#loc315)
    %c64_i64 = arith.constant 64 : i64 loc(#loc316)
    %cst_360 = arith.constant dense<64> : tensor<1xi64> loc(#loc316)
    %280 = arith.extsi %6 : tensor<512xi32> to tensor<512xi64> loc(#loc317)
    %cst_361 = arith.constant dense<64> : tensor<512xi64> loc(#loc317)
    %281 = arith.cmpi slt, %280, %cst_361 : tensor<512xi64> loc(#loc317)
    %c0_i64_362 = arith.constant 0 : i64 loc(#loc318)
    %cst_363 = arith.constant dense<0> : tensor<1xi64> loc(#loc318)
    %282 = arith.extsi %7 : tensor<512xi32> to tensor<512xi64> loc(#loc319)
    %cst_364 = arith.constant dense<0> : tensor<512xi64> loc(#loc319)
    %283 = arith.cmpi sge, %282, %cst_364 : tensor<512xi64> loc(#loc319)
    %c1_i64_365 = arith.constant 1 : i64 loc(#loc320)
    %cst_366 = arith.constant dense<1> : tensor<1xi64> loc(#loc320)
    %284 = arith.extsi %7 : tensor<512xi32> to tensor<512xi64> loc(#loc321)
    %cst_367 = arith.constant dense<1> : tensor<512xi64> loc(#loc321)
    %285 = arith.cmpi slt, %284, %cst_367 : tensor<512xi64> loc(#loc321)
    %286 = arith.andi %285, %279 : tensor<512xi1> loc(#loc322)
    %c3_i32_368 = arith.constant 3 : i32 loc(#loc323)
    %c3_i32_369 = arith.constant 3 : i32 loc(#loc323)
    %cst_370 = arith.constant dense<3> : tensor<512xi32> loc(#loc323)
    %287 = arith.muli %cst_370, %8 : tensor<512xi32> loc(#loc323)
    %c2_i32 = arith.constant 2 : i32 loc(#loc324)
    %c2_i32_371 = arith.constant 2 : i32 loc(#loc324)
    %cst_372 = arith.constant dense<2> : tensor<512xi32> loc(#loc324)
    %288 = arith.addi %cst_372, %287 : tensor<512xi32> loc(#loc324)
    %289 = tt.splat %arg0 : !tt.ptr<f32> -> tensor<512x!tt.ptr<f32>> loc(#loc325)
    %290 = tt.addptr %289, %288 : tensor<512x!tt.ptr<f32>>, tensor<512xi32> loc(#loc325)
    %cst_373 = arith.constant 0.000000e+00 : f32 loc(#loc326)
    %cst_374 = arith.constant dense<0.000000e+00> : tensor<512xf32> loc(#loc326)
    %291 = tt.load %290, %286, %cst_374 evictionPolicy = evict_last : tensor<512x!tt.ptr<f32>> loc(#loc326)
    %292 = arith.extf %291 : tensor<512xf32> to tensor<512xf64> loc(#loc327)
    %c-43_i32 = arith.constant -43 : i32 loc(#loc328)
    %c-43_i32_375 = arith.constant -43 : i32 loc(#loc328)
    %cst_376 = arith.constant dense<-43> : tensor<512xi32> loc(#loc328)
    %293 = arith.addi %cst_376, %6 : tensor<512xi32> loc(#loc328)
    %294 = arith.sitofp %293 : tensor<512xi32> to tensor<512xf32> loc(#loc329)
    %cst_377 = arith.constant 1.050000e+01 : f32 loc(#loc330)
    %cst_378 = arith.constant dense<1.050000e+01> : tensor<512xf32> loc(#loc331)
    %295 = arith.cmpf olt, %294, %cst_378 : tensor<512xf32> loc(#loc331)
    %296 = arith.sitofp %293 : tensor<512xi32> to tensor<512xf64> loc(#loc332)
    %cst_379 = arith.constant 0.047619047619047616 : f64 loc(#loc333)
    %cst_380 = arith.constant dense<0.047619047619047616> : tensor<1xf64> loc(#loc333)
    %cst_381 = arith.constant dense<0.047619047619047616> : tensor<512xf64> loc(#loc334)
    %297 = arith.mulf %296, %cst_381 : tensor<512xf64> loc(#loc334)
    %cst_382 = arith.constant 0.000000e+00 : f64 loc(#loc335)
    %cst_383 = arith.constant dense<0.000000e+00> : tensor<1xf64> loc(#loc335)
    %cst_384 = arith.constant dense<0.000000e+00> : tensor<512xf64> loc(#loc336)
    %298 = arith.addf %297, %cst_384 : tensor<512xf64> loc(#loc336)
    %c-43_i32_385 = arith.constant -43 : i32 loc(#loc337)
    %c-43_i32_386 = arith.constant -43 : i32 loc(#loc337)
    %cst_387 = arith.constant dense<-43> : tensor<512xi32> loc(#loc337)
    %299 = arith.addi %cst_387, %6 : tensor<512xi32> loc(#loc337)
    %c-1_i32_388 = arith.constant -1 : i32 loc(#loc338)
    %c-1_i32_389 = arith.constant -1 : i32 loc(#loc338)
    %cst_390 = arith.constant dense<-1> : tensor<512xi32> loc(#loc338)
    %300 = arith.muli %cst_390, %299 : tensor<512xi32> loc(#loc338)
    %c20_i32_391 = arith.constant 20 : i32 loc(#loc339)
    %c20_i32_392 = arith.constant 20 : i32 loc(#loc339)
    %cst_393 = arith.constant dense<20> : tensor<512xi32> loc(#loc339)
    %301 = arith.addi %cst_393, %300 : tensor<512xi32> loc(#loc339)
    %302 = arith.sitofp %301 : tensor<512xi32> to tensor<512xf64> loc(#loc340)
    %cst_394 = arith.constant dense<0.047619047619047616> : tensor<512xf64> loc(#loc341)
    %303 = arith.mulf %302, %cst_394 : tensor<512xf64> loc(#loc341)
    %cst_395 = arith.constant 0.95238095238095233 : f64 loc(#loc342)
    %cst_396 = arith.constant dense<0.95238095238095233> : tensor<1xf64> loc(#loc342)
    %cst_397 = arith.constant dense<0.95238095238095233> : tensor<512xf64> loc(#loc343)
    %304 = arith.subf %cst_397, %303 : tensor<512xf64> loc(#loc343)
    %305 = arith.select %295, %298, %304 : tensor<512xi1>, tensor<512xf64> loc(#loc344)
    %cst_398 = arith.constant 1.000000e+04 : f64 loc(#loc345)
    %cst_399 = arith.constant dense<1.000000e+04> : tensor<1xf64> loc(#loc345)
    %cst_400 = arith.constant dense<1.000000e+04> : tensor<512xf64> loc(#loc346)
    %cst_401 = arith.constant dense<1.000000e+04> : tensor<512xf64> loc(#loc346)
    %306 = tt.extern_elementwise %cst_401, %305 {libname = "", libpath = "", pure = true, symbol = "__nv_pow"} : (tensor<512xf64>, tensor<512xf64>) -> tensor<512xf64> loc(#loc346)
    %c1_i32_402 = arith.constant 1 : i32 loc(#loc347)
    %cst_403 = arith.constant dense<1> : tensor<1xi32> loc(#loc347)
    %307 = arith.sitofp %cst_403 : tensor<1xi32> to tensor<1xf64> loc(#loc348)
    %308 = tt.broadcast %307 : tensor<1xf64> -> tensor<512xf64> loc(#loc348)
    %309 = arith.divf %308, %306 : tensor<512xf64> loc(#loc348)
    %cst_404 = arith.constant 1.000000e+00 : f64 loc(#loc349)
    %cst_405 = arith.constant dense<1.000000e+00> : tensor<1xf64> loc(#loc349)
    %cst_406 = arith.constant dense<1.000000e+00> : tensor<512xf64> loc(#loc350)
    %310 = arith.mulf %309, %cst_406 : tensor<512xf64> loc(#loc350)
    %311 = arith.mulf %292, %310 : tensor<512xf64> loc(#loc351)
    %312 = tt.extern_elementwise %311 {libname = "", libpath = "", pure = true, symbol = "__nv_cos"} : (tensor<512xf64>) -> tensor<512xf64> loc(#loc352)
    %cst_407 = arith.constant 0.000000e+00 : f64 loc(#loc353)
    %cst_408 = arith.constant dense<0.000000e+00> : tensor<512xf64> loc(#loc353)
    %313 = arith.select %286, %312, %cst_408 : tensor<512xi1>, tensor<512xf64> loc(#loc354)
    %314 = arith.extsi %7 : tensor<512xi32> to tensor<512xi64> loc(#loc355)
    %cst_409 = arith.constant dense<1> : tensor<512xi64> loc(#loc355)
    %315 = arith.cmpi sge, %314, %cst_409 : tensor<512xi64> loc(#loc355)
    %c2_i64_410 = arith.constant 2 : i64 loc(#loc356)
    %cst_411 = arith.constant dense<2> : tensor<1xi64> loc(#loc356)
    %316 = arith.extsi %7 : tensor<512xi32> to tensor<512xi64> loc(#loc357)
    %cst_412 = arith.constant dense<2> : tensor<512xi64> loc(#loc357)
    %317 = arith.cmpi slt, %316, %cst_412 : tensor<512xi64> loc(#loc357)
    %318 = arith.andi %315, %317 : tensor<512xi1> loc(#loc358)
    %319 = arith.andi %318, %279 : tensor<512xi1> loc(#loc359)
    %c3_i32_413 = arith.constant 3 : i32 loc(#loc360)
    %c3_i32_414 = arith.constant 3 : i32 loc(#loc360)
    %cst_415 = arith.constant dense<3> : tensor<512xi32> loc(#loc360)
    %320 = arith.muli %cst_415, %8 : tensor<512xi32> loc(#loc360)
    %c2_i32_416 = arith.constant 2 : i32 loc(#loc361)
    %c2_i32_417 = arith.constant 2 : i32 loc(#loc361)
    %cst_418 = arith.constant dense<2> : tensor<512xi32> loc(#loc361)
    %321 = arith.addi %cst_418, %320 : tensor<512xi32> loc(#loc361)
    %322 = tt.splat %arg0 : !tt.ptr<f32> -> tensor<512x!tt.ptr<f32>> loc(#loc362)
    %323 = tt.addptr %322, %321 : tensor<512x!tt.ptr<f32>>, tensor<512xi32> loc(#loc362)
    %cst_419 = arith.constant 0.000000e+00 : f32 loc(#loc363)
    %cst_420 = arith.constant dense<0.000000e+00> : tensor<512xf32> loc(#loc363)
    %324 = tt.load %323, %319, %cst_420 evictionPolicy = evict_last : tensor<512x!tt.ptr<f32>> loc(#loc363)
    %325 = arith.extf %324 : tensor<512xf32> to tensor<512xf64> loc(#loc364)
    %c-43_i32_421 = arith.constant -43 : i32 loc(#loc365)
    %c-43_i32_422 = arith.constant -43 : i32 loc(#loc365)
    %cst_423 = arith.constant dense<-43> : tensor<512xi32> loc(#loc365)
    %326 = arith.addi %cst_423, %6 : tensor<512xi32> loc(#loc365)
    %327 = arith.sitofp %326 : tensor<512xi32> to tensor<512xf32> loc(#loc366)
    %cst_424 = arith.constant 1.050000e+01 : f32 loc(#loc367)
    %cst_425 = arith.constant dense<1.050000e+01> : tensor<512xf32> loc(#loc368)
    %328 = arith.cmpf olt, %327, %cst_425 : tensor<512xf32> loc(#loc368)
    %329 = arith.sitofp %326 : tensor<512xi32> to tensor<512xf64> loc(#loc369)
    %cst_426 = arith.constant 0.047619047619047616 : f64 loc(#loc370)
    %cst_427 = arith.constant dense<0.047619047619047616> : tensor<1xf64> loc(#loc370)
    %cst_428 = arith.constant dense<0.047619047619047616> : tensor<512xf64> loc(#loc371)
    %330 = arith.mulf %329, %cst_428 : tensor<512xf64> loc(#loc371)
    %cst_429 = arith.constant 0.000000e+00 : f64 loc(#loc372)
    %cst_430 = arith.constant dense<0.000000e+00> : tensor<1xf64> loc(#loc372)
    %cst_431 = arith.constant dense<0.000000e+00> : tensor<512xf64> loc(#loc373)
    %331 = arith.addf %330, %cst_431 : tensor<512xf64> loc(#loc373)
    %c-43_i32_432 = arith.constant -43 : i32 loc(#loc374)
    %c-43_i32_433 = arith.constant -43 : i32 loc(#loc374)
    %cst_434 = arith.constant dense<-43> : tensor<512xi32> loc(#loc374)
    %332 = arith.addi %cst_434, %6 : tensor<512xi32> loc(#loc374)
    %c-1_i32_435 = arith.constant -1 : i32 loc(#loc375)
    %c-1_i32_436 = arith.constant -1 : i32 loc(#loc375)
    %cst_437 = arith.constant dense<-1> : tensor<512xi32> loc(#loc375)
    %333 = arith.muli %cst_437, %332 : tensor<512xi32> loc(#loc375)
    %c20_i32_438 = arith.constant 20 : i32 loc(#loc376)
    %c20_i32_439 = arith.constant 20 : i32 loc(#loc376)
    %cst_440 = arith.constant dense<20> : tensor<512xi32> loc(#loc376)
    %334 = arith.addi %cst_440, %333 : tensor<512xi32> loc(#loc376)
    %335 = arith.sitofp %334 : tensor<512xi32> to tensor<512xf64> loc(#loc377)
    %cst_441 = arith.constant dense<0.047619047619047616> : tensor<512xf64> loc(#loc378)
    %336 = arith.mulf %335, %cst_441 : tensor<512xf64> loc(#loc378)
    %cst_442 = arith.constant 0.95238095238095233 : f64 loc(#loc379)
    %cst_443 = arith.constant dense<0.95238095238095233> : tensor<1xf64> loc(#loc379)
    %cst_444 = arith.constant dense<0.95238095238095233> : tensor<512xf64> loc(#loc380)
    %337 = arith.subf %cst_444, %336 : tensor<512xf64> loc(#loc380)
    %338 = arith.select %328, %331, %337 : tensor<512xi1>, tensor<512xf64> loc(#loc381)
    %cst_445 = arith.constant 1.000000e+04 : f64 loc(#loc382)
    %cst_446 = arith.constant dense<1.000000e+04> : tensor<1xf64> loc(#loc382)
    %cst_447 = arith.constant dense<1.000000e+04> : tensor<512xf64> loc(#loc383)
    %cst_448 = arith.constant dense<1.000000e+04> : tensor<512xf64> loc(#loc383)
    %339 = tt.extern_elementwise %cst_448, %338 {libname = "", libpath = "", pure = true, symbol = "__nv_pow"} : (tensor<512xf64>, tensor<512xf64>) -> tensor<512xf64> loc(#loc383)
    %c1_i32_449 = arith.constant 1 : i32 loc(#loc384)
    %cst_450 = arith.constant dense<1> : tensor<1xi32> loc(#loc384)
    %340 = arith.sitofp %cst_450 : tensor<1xi32> to tensor<1xf64> loc(#loc385)
    %341 = tt.broadcast %340 : tensor<1xf64> -> tensor<512xf64> loc(#loc385)
    %342 = arith.divf %341, %339 : tensor<512xf64> loc(#loc385)
    %cst_451 = arith.constant 1.000000e+00 : f64 loc(#loc386)
    %cst_452 = arith.constant dense<1.000000e+00> : tensor<1xf64> loc(#loc386)
    %cst_453 = arith.constant dense<1.000000e+00> : tensor<512xf64> loc(#loc387)
    %343 = arith.mulf %342, %cst_453 : tensor<512xf64> loc(#loc387)
    %344 = arith.mulf %325, %343 : tensor<512xf64> loc(#loc388)
    %345 = tt.extern_elementwise %344 {libname = "", libpath = "", pure = true, symbol = "__nv_sin"} : (tensor<512xf64>) -> tensor<512xf64> loc(#loc389)
    %cst_454 = arith.constant 0.000000e+00 : f64 loc(#loc390)
    %cst_455 = arith.constant dense<0.000000e+00> : tensor<512xf64> loc(#loc390)
    %346 = arith.subf %cst_455, %345 : tensor<512xf64> loc(#loc390)
    %cst_456 = arith.constant 0.000000e+00 : f64 loc(#loc391)
    %cst_457 = arith.constant dense<0.000000e+00> : tensor<512xf64> loc(#loc391)
    %347 = arith.select %319, %346, %cst_457 : tensor<512xi1>, tensor<512xf64> loc(#loc392)
    %348 = arith.extsi %7 : tensor<512xi32> to tensor<512xi64> loc(#loc393)
    %cst_458 = arith.constant dense<2> : tensor<512xi64> loc(#loc393)
    %349 = arith.cmpi sge, %348, %cst_458 : tensor<512xi64> loc(#loc393)
    %c3_i64_459 = arith.constant 3 : i64 loc(#loc394)
    %cst_460 = arith.constant dense<3> : tensor<1xi64> loc(#loc394)
    %350 = arith.extsi %7 : tensor<512xi32> to tensor<512xi64> loc(#loc395)
    %cst_461 = arith.constant dense<3> : tensor<512xi64> loc(#loc395)
    %351 = arith.cmpi slt, %350, %cst_461 : tensor<512xi64> loc(#loc395)
    %352 = arith.andi %349, %351 : tensor<512xi1> loc(#loc396)
    %353 = arith.andi %352, %279 : tensor<512xi1> loc(#loc397)
    %c3_i32_462 = arith.constant 3 : i32 loc(#loc398)
    %c3_i32_463 = arith.constant 3 : i32 loc(#loc398)
    %cst_464 = arith.constant dense<3> : tensor<512xi32> loc(#loc398)
    %354 = arith.muli %cst_464, %8 : tensor<512xi32> loc(#loc398)
    %c2_i32_465 = arith.constant 2 : i32 loc(#loc399)
    %c2_i32_466 = arith.constant 2 : i32 loc(#loc399)
    %cst_467 = arith.constant dense<2> : tensor<512xi32> loc(#loc399)
    %355 = arith.addi %cst_467, %354 : tensor<512xi32> loc(#loc399)
    %356 = tt.splat %arg0 : !tt.ptr<f32> -> tensor<512x!tt.ptr<f32>> loc(#loc400)
    %357 = tt.addptr %356, %355 : tensor<512x!tt.ptr<f32>>, tensor<512xi32> loc(#loc400)
    %cst_468 = arith.constant 0.000000e+00 : f32 loc(#loc401)
    %cst_469 = arith.constant dense<0.000000e+00> : tensor<512xf32> loc(#loc401)
    %358 = tt.load %357, %353, %cst_469 evictionPolicy = evict_last : tensor<512x!tt.ptr<f32>> loc(#loc401)
    %359 = arith.extf %358 : tensor<512xf32> to tensor<512xf64> loc(#loc402)
    %c-43_i32_470 = arith.constant -43 : i32 loc(#loc403)
    %c-43_i32_471 = arith.constant -43 : i32 loc(#loc403)
    %cst_472 = arith.constant dense<-43> : tensor<512xi32> loc(#loc403)
    %360 = arith.addi %cst_472, %6 : tensor<512xi32> loc(#loc403)
    %361 = arith.sitofp %360 : tensor<512xi32> to tensor<512xf32> loc(#loc404)
    %cst_473 = arith.constant 1.050000e+01 : f32 loc(#loc405)
    %cst_474 = arith.constant dense<1.050000e+01> : tensor<512xf32> loc(#loc406)
    %362 = arith.cmpf olt, %361, %cst_474 : tensor<512xf32> loc(#loc406)
    %363 = arith.sitofp %360 : tensor<512xi32> to tensor<512xf64> loc(#loc407)
    %cst_475 = arith.constant 0.047619047619047616 : f64 loc(#loc408)
    %cst_476 = arith.constant dense<0.047619047619047616> : tensor<1xf64> loc(#loc408)
    %cst_477 = arith.constant dense<0.047619047619047616> : tensor<512xf64> loc(#loc409)
    %364 = arith.mulf %363, %cst_477 : tensor<512xf64> loc(#loc409)
    %cst_478 = arith.constant 0.000000e+00 : f64 loc(#loc410)
    %cst_479 = arith.constant dense<0.000000e+00> : tensor<1xf64> loc(#loc410)
    %cst_480 = arith.constant dense<0.000000e+00> : tensor<512xf64> loc(#loc411)
    %365 = arith.addf %364, %cst_480 : tensor<512xf64> loc(#loc411)
    %c-43_i32_481 = arith.constant -43 : i32 loc(#loc412)
    %c-43_i32_482 = arith.constant -43 : i32 loc(#loc412)
    %cst_483 = arith.constant dense<-43> : tensor<512xi32> loc(#loc412)
    %366 = arith.addi %cst_483, %6 : tensor<512xi32> loc(#loc412)
    %c-1_i32_484 = arith.constant -1 : i32 loc(#loc413)
    %c-1_i32_485 = arith.constant -1 : i32 loc(#loc413)
    %cst_486 = arith.constant dense<-1> : tensor<512xi32> loc(#loc413)
    %367 = arith.muli %cst_486, %366 : tensor<512xi32> loc(#loc413)
    %c20_i32_487 = arith.constant 20 : i32 loc(#loc414)
    %c20_i32_488 = arith.constant 20 : i32 loc(#loc414)
    %cst_489 = arith.constant dense<20> : tensor<512xi32> loc(#loc414)
    %368 = arith.addi %cst_489, %367 : tensor<512xi32> loc(#loc414)
    %369 = arith.sitofp %368 : tensor<512xi32> to tensor<512xf64> loc(#loc415)
    %cst_490 = arith.constant dense<0.047619047619047616> : tensor<512xf64> loc(#loc416)
    %370 = arith.mulf %369, %cst_490 : tensor<512xf64> loc(#loc416)
    %cst_491 = arith.constant 0.95238095238095233 : f64 loc(#loc417)
    %cst_492 = arith.constant dense<0.95238095238095233> : tensor<1xf64> loc(#loc417)
    %cst_493 = arith.constant dense<0.95238095238095233> : tensor<512xf64> loc(#loc418)
    %371 = arith.subf %cst_493, %370 : tensor<512xf64> loc(#loc418)
    %372 = arith.select %362, %365, %371 : tensor<512xi1>, tensor<512xf64> loc(#loc419)
    %cst_494 = arith.constant 1.000000e+04 : f64 loc(#loc420)
    %cst_495 = arith.constant dense<1.000000e+04> : tensor<1xf64> loc(#loc420)
    %cst_496 = arith.constant dense<1.000000e+04> : tensor<512xf64> loc(#loc421)
    %cst_497 = arith.constant dense<1.000000e+04> : tensor<512xf64> loc(#loc421)
    %373 = tt.extern_elementwise %cst_497, %372 {libname = "", libpath = "", pure = true, symbol = "__nv_pow"} : (tensor<512xf64>, tensor<512xf64>) -> tensor<512xf64> loc(#loc421)
    %c1_i32_498 = arith.constant 1 : i32 loc(#loc422)
    %cst_499 = arith.constant dense<1> : tensor<1xi32> loc(#loc422)
    %374 = arith.sitofp %cst_499 : tensor<1xi32> to tensor<1xf64> loc(#loc423)
    %375 = tt.broadcast %374 : tensor<1xf64> -> tensor<512xf64> loc(#loc423)
    %376 = arith.divf %375, %373 : tensor<512xf64> loc(#loc423)
    %cst_500 = arith.constant 1.000000e+00 : f64 loc(#loc424)
    %cst_501 = arith.constant dense<1.000000e+00> : tensor<1xf64> loc(#loc424)
    %cst_502 = arith.constant dense<1.000000e+00> : tensor<512xf64> loc(#loc425)
    %377 = arith.mulf %376, %cst_502 : tensor<512xf64> loc(#loc425)
    %378 = arith.mulf %359, %377 : tensor<512xf64> loc(#loc426)
    %379 = tt.extern_elementwise %378 {libname = "", libpath = "", pure = true, symbol = "__nv_sin"} : (tensor<512xf64>) -> tensor<512xf64> loc(#loc427)
    %cst_503 = arith.constant 0.000000e+00 : f64 loc(#loc428)
    %cst_504 = arith.constant dense<0.000000e+00> : tensor<512xf64> loc(#loc428)
    %380 = arith.select %353, %379, %cst_504 : tensor<512xi1>, tensor<512xf64> loc(#loc429)
    %381 = arith.extsi %7 : tensor<512xi32> to tensor<512xi64> loc(#loc430)
    %cst_505 = arith.constant dense<3> : tensor<512xi64> loc(#loc430)
    %382 = arith.cmpi sge, %381, %cst_505 : tensor<512xi64> loc(#loc430)
    %c4_i64_506 = arith.constant 4 : i64 loc(#loc431)
    %cst_507 = arith.constant dense<4> : tensor<1xi64> loc(#loc431)
    %383 = arith.extsi %7 : tensor<512xi32> to tensor<512xi64> loc(#loc432)
    %cst_508 = arith.constant dense<4> : tensor<512xi64> loc(#loc432)
    %384 = arith.cmpi slt, %383, %cst_508 : tensor<512xi64> loc(#loc432)
    %385 = arith.andi %382, %279 : tensor<512xi1> loc(#loc433)
    %c3_i32_509 = arith.constant 3 : i32 loc(#loc434)
    %c3_i32_510 = arith.constant 3 : i32 loc(#loc434)
    %cst_511 = arith.constant dense<3> : tensor<512xi32> loc(#loc434)
    %386 = arith.muli %cst_511, %8 : tensor<512xi32> loc(#loc434)
    %c2_i32_512 = arith.constant 2 : i32 loc(#loc435)
    %c2_i32_513 = arith.constant 2 : i32 loc(#loc435)
    %cst_514 = arith.constant dense<2> : tensor<512xi32> loc(#loc435)
    %387 = arith.addi %cst_514, %386 : tensor<512xi32> loc(#loc435)
    %388 = tt.splat %arg0 : !tt.ptr<f32> -> tensor<512x!tt.ptr<f32>> loc(#loc436)
    %389 = tt.addptr %388, %387 : tensor<512x!tt.ptr<f32>>, tensor<512xi32> loc(#loc436)
    %cst_515 = arith.constant 0.000000e+00 : f32 loc(#loc437)
    %cst_516 = arith.constant dense<0.000000e+00> : tensor<512xf32> loc(#loc437)
    %390 = tt.load %389, %385, %cst_516 evictionPolicy = evict_last : tensor<512x!tt.ptr<f32>> loc(#loc437)
    %391 = arith.extf %390 : tensor<512xf32> to tensor<512xf64> loc(#loc438)
    %c-43_i32_517 = arith.constant -43 : i32 loc(#loc439)
    %c-43_i32_518 = arith.constant -43 : i32 loc(#loc439)
    %cst_519 = arith.constant dense<-43> : tensor<512xi32> loc(#loc439)
    %392 = arith.addi %cst_519, %6 : tensor<512xi32> loc(#loc439)
    %393 = arith.sitofp %392 : tensor<512xi32> to tensor<512xf32> loc(#loc440)
    %cst_520 = arith.constant 1.050000e+01 : f32 loc(#loc441)
    %cst_521 = arith.constant dense<1.050000e+01> : tensor<512xf32> loc(#loc442)
    %394 = arith.cmpf olt, %393, %cst_521 : tensor<512xf32> loc(#loc442)
    %395 = arith.sitofp %392 : tensor<512xi32> to tensor<512xf64> loc(#loc443)
    %cst_522 = arith.constant 0.047619047619047616 : f64 loc(#loc444)
    %cst_523 = arith.constant dense<0.047619047619047616> : tensor<1xf64> loc(#loc444)
    %cst_524 = arith.constant dense<0.047619047619047616> : tensor<512xf64> loc(#loc445)
    %396 = arith.mulf %395, %cst_524 : tensor<512xf64> loc(#loc445)
    %cst_525 = arith.constant 0.000000e+00 : f64 loc(#loc446)
    %cst_526 = arith.constant dense<0.000000e+00> : tensor<1xf64> loc(#loc446)
    %cst_527 = arith.constant dense<0.000000e+00> : tensor<512xf64> loc(#loc447)
    %397 = arith.addf %396, %cst_527 : tensor<512xf64> loc(#loc447)
    %c-43_i32_528 = arith.constant -43 : i32 loc(#loc448)
    %c-43_i32_529 = arith.constant -43 : i32 loc(#loc448)
    %cst_530 = arith.constant dense<-43> : tensor<512xi32> loc(#loc448)
    %398 = arith.addi %cst_530, %6 : tensor<512xi32> loc(#loc448)
    %c-1_i32_531 = arith.constant -1 : i32 loc(#loc449)
    %c-1_i32_532 = arith.constant -1 : i32 loc(#loc449)
    %cst_533 = arith.constant dense<-1> : tensor<512xi32> loc(#loc449)
    %399 = arith.muli %cst_533, %398 : tensor<512xi32> loc(#loc449)
    %c20_i32_534 = arith.constant 20 : i32 loc(#loc450)
    %c20_i32_535 = arith.constant 20 : i32 loc(#loc450)
    %cst_536 = arith.constant dense<20> : tensor<512xi32> loc(#loc450)
    %400 = arith.addi %cst_536, %399 : tensor<512xi32> loc(#loc450)
    %401 = arith.sitofp %400 : tensor<512xi32> to tensor<512xf64> loc(#loc451)
    %cst_537 = arith.constant dense<0.047619047619047616> : tensor<512xf64> loc(#loc452)
    %402 = arith.mulf %401, %cst_537 : tensor<512xf64> loc(#loc452)
    %cst_538 = arith.constant 0.95238095238095233 : f64 loc(#loc453)
    %cst_539 = arith.constant dense<0.95238095238095233> : tensor<1xf64> loc(#loc453)
    %cst_540 = arith.constant dense<0.95238095238095233> : tensor<512xf64> loc(#loc454)
    %403 = arith.subf %cst_540, %402 : tensor<512xf64> loc(#loc454)
    %404 = arith.select %394, %397, %403 : tensor<512xi1>, tensor<512xf64> loc(#loc455)
    %cst_541 = arith.constant 1.000000e+04 : f64 loc(#loc456)
    %cst_542 = arith.constant dense<1.000000e+04> : tensor<1xf64> loc(#loc456)
    %cst_543 = arith.constant dense<1.000000e+04> : tensor<512xf64> loc(#loc457)
    %cst_544 = arith.constant dense<1.000000e+04> : tensor<512xf64> loc(#loc457)
    %405 = tt.extern_elementwise %cst_544, %404 {libname = "", libpath = "", pure = true, symbol = "__nv_pow"} : (tensor<512xf64>, tensor<512xf64>) -> tensor<512xf64> loc(#loc457)
    %c1_i32_545 = arith.constant 1 : i32 loc(#loc458)
    %cst_546 = arith.constant dense<1> : tensor<1xi32> loc(#loc458)
    %406 = arith.sitofp %cst_546 : tensor<1xi32> to tensor<1xf64> loc(#loc459)
    %407 = tt.broadcast %406 : tensor<1xf64> -> tensor<512xf64> loc(#loc459)
    %408 = arith.divf %407, %405 : tensor<512xf64> loc(#loc459)
    %cst_547 = arith.constant 1.000000e+00 : f64 loc(#loc460)
    %cst_548 = arith.constant dense<1.000000e+00> : tensor<1xf64> loc(#loc460)
    %cst_549 = arith.constant dense<1.000000e+00> : tensor<512xf64> loc(#loc461)
    %409 = arith.mulf %408, %cst_549 : tensor<512xf64> loc(#loc461)
    %410 = arith.mulf %391, %409 : tensor<512xf64> loc(#loc462)
    %411 = tt.extern_elementwise %410 {libname = "", libpath = "", pure = true, symbol = "__nv_cos"} : (tensor<512xf64>) -> tensor<512xf64> loc(#loc463)
    %cst_550 = arith.constant 0.000000e+00 : f64 loc(#loc464)
    %cst_551 = arith.constant dense<0.000000e+00> : tensor<512xf64> loc(#loc464)
    %412 = arith.select %385, %411, %cst_551 : tensor<512xi1>, tensor<512xf64> loc(#loc465)
    %413 = arith.select %352, %380, %412 : tensor<512xi1>, tensor<512xf64> loc(#loc466)
    %414 = arith.select %318, %347, %413 : tensor<512xi1>, tensor<512xf64> loc(#loc467)
    %415 = arith.select %285, %313, %414 : tensor<512xi1>, tensor<512xf64> loc(#loc468)
    %416 = arith.truncf %415 : tensor<512xf64> to tensor<512xf32> loc(#loc469)
    %cst_552 = arith.constant 0.000000e+00 : f32 loc(#loc470)
    %cst_553 = arith.constant dense<0.000000e+00> : tensor<512xf32> loc(#loc470)
    %417 = arith.select %279, %416, %cst_553 : tensor<512xi1>, tensor<512xf32> loc(#loc471)
    %418 = arith.select %141, %277, %417 : tensor<512xi1>, tensor<512xf32> loc(#loc472)
    %419 = arith.select %12, %136, %418 : tensor<512xi1>, tensor<512xf32> loc(#loc473)
    %420 = tt.splat %arg1 : !tt.ptr<f32> -> tensor<512x!tt.ptr<f32>> loc(#loc474)
    %421 = tt.addptr %420, %4 : tensor<512x!tt.ptr<f32>>, tensor<512xi32> loc(#loc474)
    tt.store %421, %419 : tensor<512x!tt.ptr<f32>> loc(#loc475)
    tt.return loc(#loc476)
  } loc(#loc)
} loc(#loc)
#loc1 = loc("C:\\Users\\Administrator\\AppData\\Local\\Temp\\torchinductor_Administrator\\cd\\ccdcwxexqeceavr42ivgorgpxfdlvtfm5poeygc3vpbkuig6z3nm.py":19:13)
#loc2 = loc("C:\\Users\\Administrator\\AppData\\Local\\Temp\\torchinductor_Administrator\\cd\\ccdcwxexqeceavr42ivgorgpxfdlvtfm5poeygc3vpbkuig6z3nm.py":20:28)
#loc3 = loc("C:\\Users\\Administrator\\AppData\\Local\\Temp\\torchinductor_Administrator\\cd\\ccdcwxexqeceavr42ivgorgpxfdlvtfm5poeygc3vpbkuig6z3nm.py":20:33)
#loc4 = loc("C:\\Users\\Administrator\\AppData\\Local\\Temp\\torchinductor_Administrator\\cd\\ccdcwxexqeceavr42ivgorgpxfdlvtfm5poeygc3vpbkuig6z3nm.py":21:36)
#loc5 = loc("C:\\Users\\Administrator\\AppData\\Local\\Temp\\torchinductor_Administrator\\cd\\ccdcwxexqeceavr42ivgorgpxfdlvtfm5poeygc3vpbkuig6z3nm.py":21:23)
#loc6 = loc("C:\\Users\\Administrator\\AppData\\Local\\Temp\\torchinductor_Administrator\\cd\\ccdcwxexqeceavr42ivgorgpxfdlvtfm5poeygc3vpbkuig6z3nm.py":22:36)
#loc7 = loc("C:\\Users\\Administrator\\AppData\\Local\\Temp\\torchinductor_Administrator\\cd\\ccdcwxexqeceavr42ivgorgpxfdlvtfm5poeygc3vpbkuig6z3nm.py":23:21)
#loc8 = loc("C:\\Users\\Administrator\\AppData\\Local\\Temp\\torchinductor_Administrator\\cd\\ccdcwxexqeceavr42ivgorgpxfdlvtfm5poeygc3vpbkuig6z3nm.py":23:26)
#loc9 = loc("C:\\Users\\Administrator\\AppData\\Local\\Temp\\torchinductor_Administrator\\cd\\ccdcwxexqeceavr42ivgorgpxfdlvtfm5poeygc3vpbkuig6z3nm.py":24:19)
#loc10 = loc("C:\\Users\\Administrator\\AppData\\Local\\Temp\\torchinductor_Administrator\\cd\\ccdcwxexqeceavr42ivgorgpxfdlvtfm5poeygc3vpbkuig6z3nm.py":25:19)
#loc11 = loc("C:\\Users\\Administrator\\AppData\\Local\\Temp\\torchinductor_Administrator\\cd\\ccdcwxexqeceavr42ivgorgpxfdlvtfm5poeygc3vpbkuig6z3nm.py":28:27)
#loc12 = loc("C:\\Users\\Administrator\\AppData\\Local\\Temp\\torchinductor_Administrator\\cd\\ccdcwxexqeceavr42ivgorgpxfdlvtfm5poeygc3vpbkuig6z3nm.py":29:19)
#loc13 = loc("C:\\Users\\Administrator\\AppData\\Local\\Temp\\torchinductor_Administrator\\cd\\ccdcwxexqeceavr42ivgorgpxfdlvtfm5poeygc3vpbkuig6z3nm.py":30:28)
#loc14 = loc("C:\\Users\\Administrator\\AppData\\Local\\Temp\\torchinductor_Administrator\\cd\\ccdcwxexqeceavr42ivgorgpxfdlvtfm5poeygc3vpbkuig6z3nm.py":31:18)
#loc15 = loc("C:\\Users\\Administrator\\AppData\\Local\\Temp\\torchinductor_Administrator\\cd\\ccdcwxexqeceavr42ivgorgpxfdlvtfm5poeygc3vpbkuig6z3nm.py":33:27)
#loc16 = loc("C:\\Users\\Administrator\\AppData\\Local\\Temp\\torchinductor_Administrator\\cd\\ccdcwxexqeceavr42ivgorgpxfdlvtfm5poeygc3vpbkuig6z3nm.py":34:19)
#loc17 = loc("C:\\Users\\Administrator\\AppData\\Local\\Temp\\torchinductor_Administrator\\cd\\ccdcwxexqeceavr42ivgorgpxfdlvtfm5poeygc3vpbkuig6z3nm.py":35:27)
#loc18 = loc("C:\\Users\\Administrator\\AppData\\Local\\Temp\\torchinductor_Administrator\\cd\\ccdcwxexqeceavr42ivgorgpxfdlvtfm5poeygc3vpbkuig6z3nm.py":36:18)
#loc19 = loc("C:\\Users\\Administrator\\AppData\\Local\\Temp\\torchinductor_Administrator\\cd\\ccdcwxexqeceavr42ivgorgpxfdlvtfm5poeygc3vpbkuig6z3nm.py":37:19)
#loc20 = loc("C:\\Users\\Administrator\\AppData\\Local\\Temp\\torchinductor_Administrator\\cd\\ccdcwxexqeceavr42ivgorgpxfdlvtfm5poeygc3vpbkuig6z3nm.py":38:33)
#loc21 = loc("C:\\Users\\Administrator\\AppData\\Local\\Temp\\torchinductor_Administrator\\cd\\ccdcwxexqeceavr42ivgorgpxfdlvtfm5poeygc3vpbkuig6z3nm.py":38:31)
#loc22 = loc("C:\\Users\\Administrator\\AppData\\Local\\Temp\\torchinductor_Administrator\\cd\\ccdcwxexqeceavr42ivgorgpxfdlvtfm5poeygc3vpbkuig6z3nm.py":38:38)
#loc23 = loc("C:\\Users\\Administrator\\AppData\\Local\\Temp\\torchinductor_Administrator\\cd\\ccdcwxexqeceavr42ivgorgpxfdlvtfm5poeygc3vpbkuig6z3nm.py":39:21)
#loc24 = loc("C:\\Users\\Administrator\\AppData\\Local\\Temp\\torchinductor_Administrator\\cd\\ccdcwxexqeceavr42ivgorgpxfdlvtfm5poeygc3vpbkuig6z3nm.py":41:21)
#loc25 = loc("C:\\Users\\Administrator\\AppData\\Local\\Temp\\torchinductor_Administrator\\cd\\ccdcwxexqeceavr42ivgorgpxfdlvtfm5poeygc3vpbkuig6z3nm.py":42:12)
#loc26 = loc("C:\\Users\\Administrator\\AppData\\Local\\Temp\\torchinductor_Administrator\\cd\\ccdcwxexqeceavr42ivgorgpxfdlvtfm5poeygc3vpbkuig6z3nm.py":43:20)
#loc27 = loc("C:\\Users\\Administrator\\AppData\\Local\\Temp\\torchinductor_Administrator\\cd\\ccdcwxexqeceavr42ivgorgpxfdlvtfm5poeygc3vpbkuig6z3nm.py":44:21)
#loc28 = loc("C:\\Users\\Administrator\\AppData\\Local\\Temp\\torchinductor_Administrator\\cd\\ccdcwxexqeceavr42ivgorgpxfdlvtfm5poeygc3vpbkuig6z3nm.py":45:47)
#loc29 = loc("C:\\Users\\Administrator\\AppData\\Local\\Temp\\torchinductor_Administrator\\cd\\ccdcwxexqeceavr42ivgorgpxfdlvtfm5poeygc3vpbkuig6z3nm.py":46:20)
#loc30 = loc("C:\\Users\\Administrator\\AppData\\Local\\Temp\\torchinductor_Administrator\\cd\\ccdcwxexqeceavr42ivgorgpxfdlvtfm5poeygc3vpbkuig6z3nm.py":47:30)
#loc31 = loc("C:\\Users\\Administrator\\AppData\\Local\\Temp\\torchinductor_Administrator\\cd\\ccdcwxexqeceavr42ivgorgpxfdlvtfm5poeygc3vpbkuig6z3nm.py":48:20)
#loc32 = loc("C:\\Users\\Administrator\\AppData\\Local\\Temp\\torchinductor_Administrator\\cd\\ccdcwxexqeceavr42ivgorgpxfdlvtfm5poeygc3vpbkuig6z3nm.py":49:24)
#loc33 = loc("C:\\Users\\Administrator\\AppData\\Local\\Temp\\torchinductor_Administrator\\cd\\ccdcwxexqeceavr42ivgorgpxfdlvtfm5poeygc3vpbkuig6z3nm.py":49:18)
#loc34 = loc("C:\\Users\\Administrator\\AppData\\Local\\Temp\\torchinductor_Administrator\\cd\\ccdcwxexqeceavr42ivgorgpxfdlvtfm5poeygc3vpbkuig6z3nm.py":50:21)
#loc35 = loc("C:\\Users\\Administrator\\AppData\\Local\\Temp\\torchinductor_Administrator\\cd\\ccdcwxexqeceavr42ivgorgpxfdlvtfm5poeygc3vpbkuig6z3nm.py":51:20)
#loc36 = loc("C:\\Users\\Administrator\\AppData\\Local\\Temp\\torchinductor_Administrator\\cd\\ccdcwxexqeceavr42ivgorgpxfdlvtfm5poeygc3vpbkuig6z3nm.py":52:45)
#loc37 = loc("C:\\Users\\Administrator\\AppData\\Local\\Temp\\torchinductor_Administrator\\cd\\ccdcwxexqeceavr42ivgorgpxfdlvtfm5poeygc3vpbkuig6z3nm.py":53:20)
#loc38 = loc("C:\\Users\\Administrator\\AppData\\Local\\Temp\\torchinductor_Administrator\\cd\\ccdcwxexqeceavr42ivgorgpxfdlvtfm5poeygc3vpbkuig6z3nm.py":54:35)
#loc39 = loc("C:\\Users\\Administrator\\AppData\\Local\\Temp\\torchinductor_Administrator\\cd\\ccdcwxexqeceavr42ivgorgpxfdlvtfm5poeygc3vpbkuig6z3nm.py":55:34)
#loc40 = loc("C:\\Users\\Administrator\\AppData\\Local\\Temp\\torchinductor_Administrator\\cd\\ccdcwxexqeceavr42ivgorgpxfdlvtfm5poeygc3vpbkuig6z3nm.py":56:33)
#loc41 = loc("C:\\Users\\Administrator\\AppData\\Local\\Temp\\torchinductor_Administrator\\cd\\ccdcwxexqeceavr42ivgorgpxfdlvtfm5poeygc3vpbkuig6z3nm.py":57:28)
#loc42 = loc("C:\\Users\\Administrator\\AppData\\Local\\Temp\\torchinductor_Administrator\\cd\\ccdcwxexqeceavr42ivgorgpxfdlvtfm5poeygc3vpbkuig6z3nm.py":58:21)
#loc43 = loc("C:\\Users\\Administrator\\AppData\\Local\\Temp\\torchinductor_Administrator\\cd\\ccdcwxexqeceavr42ivgorgpxfdlvtfm5poeygc3vpbkuig6z3nm.py":59:30)
#loc44 = loc("C:\\Users\\Administrator\\AppData\\Local\\Temp\\torchinductor_Administrator\\cd\\ccdcwxexqeceavr42ivgorgpxfdlvtfm5poeygc3vpbkuig6z3nm.py":60:20)
#loc45 = loc("C:\\Users\\Administrator\\AppData\\Local\\Temp\\torchinductor_Administrator\\cd\\ccdcwxexqeceavr42ivgorgpxfdlvtfm5poeygc3vpbkuig6z3nm.py":61:20)
#loc46 = loc("C:\\Users\\Administrator\\AppData\\Local\\Temp\\torchinductor_Administrator\\cd\\ccdcwxexqeceavr42ivgorgpxfdlvtfm5poeygc3vpbkuig6z3nm.py":62:26)
#loc47 = loc("C:\\Users\\Administrator\\AppData\\Local\\Temp\\torchinductor_Administrator\\cd\\ccdcwxexqeceavr42ivgorgpxfdlvtfm5poeygc3vpbkuig6z3nm.py":63:38)
#loc48 = loc("C:\\Users\\Administrator\\AppData\\Local\\Temp\\torchinductor_Administrator\\cd\\ccdcwxexqeceavr42ivgorgpxfdlvtfm5poeygc3vpbkuig6z3nm.py":64:35)
#loc49 = loc("C:\\Users\\Administrator\\AppData\\Local\\Temp\\torchinductor_Administrator\\cd\\ccdcwxexqeceavr42ivgorgpxfdlvtfm5poeygc3vpbkuig6z3nm.py":65:20)
#loc50 = loc("C:\\Users\\Administrator\\AppData\\Local\\Temp\\torchinductor_Administrator\\cd\\ccdcwxexqeceavr42ivgorgpxfdlvtfm5poeygc3vpbkuig6z3nm.py":66:28)
#loc51 = loc("C:\\Users\\Administrator\\AppData\\Local\\Temp\\torchinductor_Administrator\\cd\\ccdcwxexqeceavr42ivgorgpxfdlvtfm5poeygc3vpbkuig6z3nm.py":67:19)
#loc52 = loc("C:\\Users\\Administrator\\AppData\\Local\\Temp\\torchinductor_Administrator\\cd\\ccdcwxexqeceavr42ivgorgpxfdlvtfm5poeygc3vpbkuig6z3nm.py":68:20)
#loc53 = loc("C:\\Users\\Administrator\\AppData\\Local\\Temp\\torchinductor_Administrator\\cd\\ccdcwxexqeceavr42ivgorgpxfdlvtfm5poeygc3vpbkuig6z3nm.py":69:20)
#loc54 = loc("C:\\Users\\Administrator\\AppData\\Local\\Temp\\torchinductor_Administrator\\cd\\ccdcwxexqeceavr42ivgorgpxfdlvtfm5poeygc3vpbkuig6z3nm.py":70:33)
#loc55 = loc("C:\\Users\\Administrator\\AppData\\Local\\Temp\\torchinductor_Administrator\\cd\\ccdcwxexqeceavr42ivgorgpxfdlvtfm5poeygc3vpbkuig6z3nm.py":70:31)
#loc56 = loc("C:\\Users\\Administrator\\AppData\\Local\\Temp\\torchinductor_Administrator\\cd\\ccdcwxexqeceavr42ivgorgpxfdlvtfm5poeygc3vpbkuig6z3nm.py":70:38)
#loc57 = loc("C:\\Users\\Administrator\\AppData\\Local\\Temp\\torchinductor_Administrator\\cd\\ccdcwxexqeceavr42ivgorgpxfdlvtfm5poeygc3vpbkuig6z3nm.py":71:21)
#loc58 = loc("C:\\Users\\Administrator\\AppData\\Local\\Temp\\torchinductor_Administrator\\cd\\ccdcwxexqeceavr42ivgorgpxfdlvtfm5poeygc3vpbkuig6z3nm.py":73:21)
#loc59 = loc("C:\\Users\\Administrator\\AppData\\Local\\Temp\\torchinductor_Administrator\\cd\\ccdcwxexqeceavr42ivgorgpxfdlvtfm5poeygc3vpbkuig6z3nm.py":74:12)
#loc60 = loc("C:\\Users\\Administrator\\AppData\\Local\\Temp\\torchinductor_Administrator\\cd\\ccdcwxexqeceavr42ivgorgpxfdlvtfm5poeygc3vpbkuig6z3nm.py":75:20)
#loc61 = loc("C:\\Users\\Administrator\\AppData\\Local\\Temp\\torchinductor_Administrator\\cd\\ccdcwxexqeceavr42ivgorgpxfdlvtfm5poeygc3vpbkuig6z3nm.py":76:21)
#loc62 = loc("C:\\Users\\Administrator\\AppData\\Local\\Temp\\torchinductor_Administrator\\cd\\ccdcwxexqeceavr42ivgorgpxfdlvtfm5poeygc3vpbkuig6z3nm.py":77:47)
#loc63 = loc("C:\\Users\\Administrator\\AppData\\Local\\Temp\\torchinductor_Administrator\\cd\\ccdcwxexqeceavr42ivgorgpxfdlvtfm5poeygc3vpbkuig6z3nm.py":78:20)
#loc64 = loc("C:\\Users\\Administrator\\AppData\\Local\\Temp\\torchinductor_Administrator\\cd\\ccdcwxexqeceavr42ivgorgpxfdlvtfm5poeygc3vpbkuig6z3nm.py":79:30)
#loc65 = loc("C:\\Users\\Administrator\\AppData\\Local\\Temp\\torchinductor_Administrator\\cd\\ccdcwxexqeceavr42ivgorgpxfdlvtfm5poeygc3vpbkuig6z3nm.py":80:20)
#loc66 = loc("C:\\Users\\Administrator\\AppData\\Local\\Temp\\torchinductor_Administrator\\cd\\ccdcwxexqeceavr42ivgorgpxfdlvtfm5poeygc3vpbkuig6z3nm.py":81:24)
#loc67 = loc("C:\\Users\\Administrator\\AppData\\Local\\Temp\\torchinductor_Administrator\\cd\\ccdcwxexqeceavr42ivgorgpxfdlvtfm5poeygc3vpbkuig6z3nm.py":81:18)
#loc68 = loc("C:\\Users\\Administrator\\AppData\\Local\\Temp\\torchinductor_Administrator\\cd\\ccdcwxexqeceavr42ivgorgpxfdlvtfm5poeygc3vpbkuig6z3nm.py":82:21)
#loc69 = loc("C:\\Users\\Administrator\\AppData\\Local\\Temp\\torchinductor_Administrator\\cd\\ccdcwxexqeceavr42ivgorgpxfdlvtfm5poeygc3vpbkuig6z3nm.py":83:20)
#loc70 = loc("C:\\Users\\Administrator\\AppData\\Local\\Temp\\torchinductor_Administrator\\cd\\ccdcwxexqeceavr42ivgorgpxfdlvtfm5poeygc3vpbkuig6z3nm.py":84:45)
#loc71 = loc("C:\\Users\\Administrator\\AppData\\Local\\Temp\\torchinductor_Administrator\\cd\\ccdcwxexqeceavr42ivgorgpxfdlvtfm5poeygc3vpbkuig6z3nm.py":85:20)
#loc72 = loc("C:\\Users\\Administrator\\AppData\\Local\\Temp\\torchinductor_Administrator\\cd\\ccdcwxexqeceavr42ivgorgpxfdlvtfm5poeygc3vpbkuig6z3nm.py":86:35)
#loc73 = loc("C:\\Users\\Administrator\\AppData\\Local\\Temp\\torchinductor_Administrator\\cd\\ccdcwxexqeceavr42ivgorgpxfdlvtfm5poeygc3vpbkuig6z3nm.py":87:34)
#loc74 = loc("C:\\Users\\Administrator\\AppData\\Local\\Temp\\torchinductor_Administrator\\cd\\ccdcwxexqeceavr42ivgorgpxfdlvtfm5poeygc3vpbkuig6z3nm.py":88:33)
#loc75 = loc("C:\\Users\\Administrator\\AppData\\Local\\Temp\\torchinductor_Administrator\\cd\\ccdcwxexqeceavr42ivgorgpxfdlvtfm5poeygc3vpbkuig6z3nm.py":89:28)
#loc76 = loc("C:\\Users\\Administrator\\AppData\\Local\\Temp\\torchinductor_Administrator\\cd\\ccdcwxexqeceavr42ivgorgpxfdlvtfm5poeygc3vpbkuig6z3nm.py":90:21)
#loc77 = loc("C:\\Users\\Administrator\\AppData\\Local\\Temp\\torchinductor_Administrator\\cd\\ccdcwxexqeceavr42ivgorgpxfdlvtfm5poeygc3vpbkuig6z3nm.py":91:30)
#loc78 = loc("C:\\Users\\Administrator\\AppData\\Local\\Temp\\torchinductor_Administrator\\cd\\ccdcwxexqeceavr42ivgorgpxfdlvtfm5poeygc3vpbkuig6z3nm.py":92:20)
#loc79 = loc("C:\\Users\\Administrator\\AppData\\Local\\Temp\\torchinductor_Administrator\\cd\\ccdcwxexqeceavr42ivgorgpxfdlvtfm5poeygc3vpbkuig6z3nm.py":93:20)
#loc80 = loc("C:\\Users\\Administrator\\AppData\\Local\\Temp\\torchinductor_Administrator\\cd\\ccdcwxexqeceavr42ivgorgpxfdlvtfm5poeygc3vpbkuig6z3nm.py":94:26)
#loc81 = loc("C:\\Users\\Administrator\\AppData\\Local\\Temp\\torchinductor_Administrator\\cd\\ccdcwxexqeceavr42ivgorgpxfdlvtfm5poeygc3vpbkuig6z3nm.py":95:13)
#loc82 = loc("C:\\Users\\Administrator\\AppData\\Local\\Temp\\torchinductor_Administrator\\cd\\ccdcwxexqeceavr42ivgorgpxfdlvtfm5poeygc3vpbkuig6z3nm.py":96:38)
#loc83 = loc("C:\\Users\\Administrator\\AppData\\Local\\Temp\\torchinductor_Administrator\\cd\\ccdcwxexqeceavr42ivgorgpxfdlvtfm5poeygc3vpbkuig6z3nm.py":97:35)
#loc84 = loc("C:\\Users\\Administrator\\AppData\\Local\\Temp\\torchinductor_Administrator\\cd\\ccdcwxexqeceavr42ivgorgpxfdlvtfm5poeygc3vpbkuig6z3nm.py":98:20)
#loc85 = loc("C:\\Users\\Administrator\\AppData\\Local\\Temp\\torchinductor_Administrator\\cd\\ccdcwxexqeceavr42ivgorgpxfdlvtfm5poeygc3vpbkuig6z3nm.py":99:28)
#loc86 = loc("C:\\Users\\Administrator\\AppData\\Local\\Temp\\torchinductor_Administrator\\cd\\ccdcwxexqeceavr42ivgorgpxfdlvtfm5poeygc3vpbkuig6z3nm.py":100:19)
#loc87 = loc("C:\\Users\\Administrator\\AppData\\Local\\Temp\\torchinductor_Administrator\\cd\\ccdcwxexqeceavr42ivgorgpxfdlvtfm5poeygc3vpbkuig6z3nm.py":101:20)
#loc88 = loc("C:\\Users\\Administrator\\AppData\\Local\\Temp\\torchinductor_Administrator\\cd\\ccdcwxexqeceavr42ivgorgpxfdlvtfm5poeygc3vpbkuig6z3nm.py":102:20)
#loc89 = loc("C:\\Users\\Administrator\\AppData\\Local\\Temp\\torchinductor_Administrator\\cd\\ccdcwxexqeceavr42ivgorgpxfdlvtfm5poeygc3vpbkuig6z3nm.py":103:33)
#loc90 = loc("C:\\Users\\Administrator\\AppData\\Local\\Temp\\torchinductor_Administrator\\cd\\ccdcwxexqeceavr42ivgorgpxfdlvtfm5poeygc3vpbkuig6z3nm.py":103:31)
#loc91 = loc("C:\\Users\\Administrator\\AppData\\Local\\Temp\\torchinductor_Administrator\\cd\\ccdcwxexqeceavr42ivgorgpxfdlvtfm5poeygc3vpbkuig6z3nm.py":103:38)
#loc92 = loc("C:\\Users\\Administrator\\AppData\\Local\\Temp\\torchinductor_Administrator\\cd\\ccdcwxexqeceavr42ivgorgpxfdlvtfm5poeygc3vpbkuig6z3nm.py":104:21)
#loc93 = loc("C:\\Users\\Administrator\\AppData\\Local\\Temp\\torchinductor_Administrator\\cd\\ccdcwxexqeceavr42ivgorgpxfdlvtfm5poeygc3vpbkuig6z3nm.py":106:21)
#loc94 = loc("C:\\Users\\Administrator\\AppData\\Local\\Temp\\torchinductor_Administrator\\cd\\ccdcwxexqeceavr42ivgorgpxfdlvtfm5poeygc3vpbkuig6z3nm.py":107:12)
#loc95 = loc("C:\\Users\\Administrator\\AppData\\Local\\Temp\\torchinductor_Administrator\\cd\\ccdcwxexqeceavr42ivgorgpxfdlvtfm5poeygc3vpbkuig6z3nm.py":108:20)
#loc96 = loc("C:\\Users\\Administrator\\AppData\\Local\\Temp\\torchinductor_Administrator\\cd\\ccdcwxexqeceavr42ivgorgpxfdlvtfm5poeygc3vpbkuig6z3nm.py":109:21)
#loc97 = loc("C:\\Users\\Administrator\\AppData\\Local\\Temp\\torchinductor_Administrator\\cd\\ccdcwxexqeceavr42ivgorgpxfdlvtfm5poeygc3vpbkuig6z3nm.py":110:47)
#loc98 = loc("C:\\Users\\Administrator\\AppData\\Local\\Temp\\torchinductor_Administrator\\cd\\ccdcwxexqeceavr42ivgorgpxfdlvtfm5poeygc3vpbkuig6z3nm.py":111:20)
#loc99 = loc("C:\\Users\\Administrator\\AppData\\Local\\Temp\\torchinductor_Administrator\\cd\\ccdcwxexqeceavr42ivgorgpxfdlvtfm5poeygc3vpbkuig6z3nm.py":112:30)
#loc100 = loc("C:\\Users\\Administrator\\AppData\\Local\\Temp\\torchinductor_Administrator\\cd\\ccdcwxexqeceavr42ivgorgpxfdlvtfm5poeygc3vpbkuig6z3nm.py":113:20)
#loc101 = loc("C:\\Users\\Administrator\\AppData\\Local\\Temp\\torchinductor_Administrator\\cd\\ccdcwxexqeceavr42ivgorgpxfdlvtfm5poeygc3vpbkuig6z3nm.py":114:24)
#loc102 = loc("C:\\Users\\Administrator\\AppData\\Local\\Temp\\torchinductor_Administrator\\cd\\ccdcwxexqeceavr42ivgorgpxfdlvtfm5poeygc3vpbkuig6z3nm.py":114:18)
#loc103 = loc("C:\\Users\\Administrator\\AppData\\Local\\Temp\\torchinductor_Administrator\\cd\\ccdcwxexqeceavr42ivgorgpxfdlvtfm5poeygc3vpbkuig6z3nm.py":115:21)
#loc104 = loc("C:\\Users\\Administrator\\AppData\\Local\\Temp\\torchinductor_Administrator\\cd\\ccdcwxexqeceavr42ivgorgpxfdlvtfm5poeygc3vpbkuig6z3nm.py":116:20)
#loc105 = loc("C:\\Users\\Administrator\\AppData\\Local\\Temp\\torchinductor_Administrator\\cd\\ccdcwxexqeceavr42ivgorgpxfdlvtfm5poeygc3vpbkuig6z3nm.py":117:45)
#loc106 = loc("C:\\Users\\Administrator\\AppData\\Local\\Temp\\torchinductor_Administrator\\cd\\ccdcwxexqeceavr42ivgorgpxfdlvtfm5poeygc3vpbkuig6z3nm.py":118:20)
#loc107 = loc("C:\\Users\\Administrator\\AppData\\Local\\Temp\\torchinductor_Administrator\\cd\\ccdcwxexqeceavr42ivgorgpxfdlvtfm5poeygc3vpbkuig6z3nm.py":119:35)
#loc108 = loc("C:\\Users\\Administrator\\AppData\\Local\\Temp\\torchinductor_Administrator\\cd\\ccdcwxexqeceavr42ivgorgpxfdlvtfm5poeygc3vpbkuig6z3nm.py":120:34)
#loc109 = loc("C:\\Users\\Administrator\\AppData\\Local\\Temp\\torchinductor_Administrator\\cd\\ccdcwxexqeceavr42ivgorgpxfdlvtfm5poeygc3vpbkuig6z3nm.py":121:33)
#loc110 = loc("C:\\Users\\Administrator\\AppData\\Local\\Temp\\torchinductor_Administrator\\cd\\ccdcwxexqeceavr42ivgorgpxfdlvtfm5poeygc3vpbkuig6z3nm.py":122:28)
#loc111 = loc("C:\\Users\\Administrator\\AppData\\Local\\Temp\\torchinductor_Administrator\\cd\\ccdcwxexqeceavr42ivgorgpxfdlvtfm5poeygc3vpbkuig6z3nm.py":123:21)
#loc112 = loc("C:\\Users\\Administrator\\AppData\\Local\\Temp\\torchinductor_Administrator\\cd\\ccdcwxexqeceavr42ivgorgpxfdlvtfm5poeygc3vpbkuig6z3nm.py":124:30)
#loc113 = loc("C:\\Users\\Administrator\\AppData\\Local\\Temp\\torchinductor_Administrator\\cd\\ccdcwxexqeceavr42ivgorgpxfdlvtfm5poeygc3vpbkuig6z3nm.py":125:20)
#loc114 = loc("C:\\Users\\Administrator\\AppData\\Local\\Temp\\torchinductor_Administrator\\cd\\ccdcwxexqeceavr42ivgorgpxfdlvtfm5poeygc3vpbkuig6z3nm.py":126:20)
#loc115 = loc("C:\\Users\\Administrator\\AppData\\Local\\Temp\\torchinductor_Administrator\\cd\\ccdcwxexqeceavr42ivgorgpxfdlvtfm5poeygc3vpbkuig6z3nm.py":127:27)
#loc116 = loc("C:\\Users\\Administrator\\AppData\\Local\\Temp\\torchinductor_Administrator\\cd\\ccdcwxexqeceavr42ivgorgpxfdlvtfm5poeygc3vpbkuig6z3nm.py":128:40)
#loc117 = loc("C:\\Users\\Administrator\\AppData\\Local\\Temp\\torchinductor_Administrator\\cd\\ccdcwxexqeceavr42ivgorgpxfdlvtfm5poeygc3vpbkuig6z3nm.py":129:37)
#loc118 = loc("C:\\Users\\Administrator\\AppData\\Local\\Temp\\torchinductor_Administrator\\cd\\ccdcwxexqeceavr42ivgorgpxfdlvtfm5poeygc3vpbkuig6z3nm.py":130:21)
#loc119 = loc("C:\\Users\\Administrator\\AppData\\Local\\Temp\\torchinductor_Administrator\\cd\\ccdcwxexqeceavr42ivgorgpxfdlvtfm5poeygc3vpbkuig6z3nm.py":131:29)
#loc120 = loc("C:\\Users\\Administrator\\AppData\\Local\\Temp\\torchinductor_Administrator\\cd\\ccdcwxexqeceavr42ivgorgpxfdlvtfm5poeygc3vpbkuig6z3nm.py":132:20)
#loc121 = loc("C:\\Users\\Administrator\\AppData\\Local\\Temp\\torchinductor_Administrator\\cd\\ccdcwxexqeceavr42ivgorgpxfdlvtfm5poeygc3vpbkuig6z3nm.py":133:22)
#loc122 = loc("C:\\Users\\Administrator\\AppData\\Local\\Temp\\torchinductor_Administrator\\cd\\ccdcwxexqeceavr42ivgorgpxfdlvtfm5poeygc3vpbkuig6z3nm.py":134:34)
#loc123 = loc("C:\\Users\\Administrator\\AppData\\Local\\Temp\\torchinductor_Administrator\\cd\\ccdcwxexqeceavr42ivgorgpxfdlvtfm5poeygc3vpbkuig6z3nm.py":134:32)
#loc124 = loc("C:\\Users\\Administrator\\AppData\\Local\\Temp\\torchinductor_Administrator\\cd\\ccdcwxexqeceavr42ivgorgpxfdlvtfm5poeygc3vpbkuig6z3nm.py":134:39)
#loc125 = loc("C:\\Users\\Administrator\\AppData\\Local\\Temp\\torchinductor_Administrator\\cd\\ccdcwxexqeceavr42ivgorgpxfdlvtfm5poeygc3vpbkuig6z3nm.py":135:23)
#loc126 = loc("C:\\Users\\Administrator\\AppData\\Local\\Temp\\torchinductor_Administrator\\cd\\ccdcwxexqeceavr42ivgorgpxfdlvtfm5poeygc3vpbkuig6z3nm.py":137:23)
#loc127 = loc("C:\\Users\\Administrator\\AppData\\Local\\Temp\\torchinductor_Administrator\\cd\\ccdcwxexqeceavr42ivgorgpxfdlvtfm5poeygc3vpbkuig6z3nm.py":138:13)
#loc128 = loc("C:\\Users\\Administrator\\AppData\\Local\\Temp\\torchinductor_Administrator\\cd\\ccdcwxexqeceavr42ivgorgpxfdlvtfm5poeygc3vpbkuig6z3nm.py":139:22)
#loc129 = loc("C:\\Users\\Administrator\\AppData\\Local\\Temp\\torchinductor_Administrator\\cd\\ccdcwxexqeceavr42ivgorgpxfdlvtfm5poeygc3vpbkuig6z3nm.py":140:23)
#loc130 = loc("C:\\Users\\Administrator\\AppData\\Local\\Temp\\torchinductor_Administrator\\cd\\ccdcwxexqeceavr42ivgorgpxfdlvtfm5poeygc3vpbkuig6z3nm.py":141:48)
#loc131 = loc("C:\\Users\\Administrator\\AppData\\Local\\Temp\\torchinductor_Administrator\\cd\\ccdcwxexqeceavr42ivgorgpxfdlvtfm5poeygc3vpbkuig6z3nm.py":142:22)
#loc132 = loc("C:\\Users\\Administrator\\AppData\\Local\\Temp\\torchinductor_Administrator\\cd\\ccdcwxexqeceavr42ivgorgpxfdlvtfm5poeygc3vpbkuig6z3nm.py":143:31)
#loc133 = loc("C:\\Users\\Administrator\\AppData\\Local\\Temp\\torchinductor_Administrator\\cd\\ccdcwxexqeceavr42ivgorgpxfdlvtfm5poeygc3vpbkuig6z3nm.py":144:22)
#loc134 = loc("C:\\Users\\Administrator\\AppData\\Local\\Temp\\torchinductor_Administrator\\cd\\ccdcwxexqeceavr42ivgorgpxfdlvtfm5poeygc3vpbkuig6z3nm.py":145:25)
#loc135 = loc("C:\\Users\\Administrator\\AppData\\Local\\Temp\\torchinductor_Administrator\\cd\\ccdcwxexqeceavr42ivgorgpxfdlvtfm5poeygc3vpbkuig6z3nm.py":145:19)
#loc136 = loc("C:\\Users\\Administrator\\AppData\\Local\\Temp\\torchinductor_Administrator\\cd\\ccdcwxexqeceavr42ivgorgpxfdlvtfm5poeygc3vpbkuig6z3nm.py":146:23)
#loc137 = loc("C:\\Users\\Administrator\\AppData\\Local\\Temp\\torchinductor_Administrator\\cd\\ccdcwxexqeceavr42ivgorgpxfdlvtfm5poeygc3vpbkuig6z3nm.py":147:22)
#loc138 = loc("C:\\Users\\Administrator\\AppData\\Local\\Temp\\torchinductor_Administrator\\cd\\ccdcwxexqeceavr42ivgorgpxfdlvtfm5poeygc3vpbkuig6z3nm.py":148:46)
#loc139 = loc("C:\\Users\\Administrator\\AppData\\Local\\Temp\\torchinductor_Administrator\\cd\\ccdcwxexqeceavr42ivgorgpxfdlvtfm5poeygc3vpbkuig6z3nm.py":149:22)
#loc140 = loc("C:\\Users\\Administrator\\AppData\\Local\\Temp\\torchinductor_Administrator\\cd\\ccdcwxexqeceavr42ivgorgpxfdlvtfm5poeygc3vpbkuig6z3nm.py":150:38)
#loc141 = loc("C:\\Users\\Administrator\\AppData\\Local\\Temp\\torchinductor_Administrator\\cd\\ccdcwxexqeceavr42ivgorgpxfdlvtfm5poeygc3vpbkuig6z3nm.py":151:35)
#loc142 = loc("C:\\Users\\Administrator\\AppData\\Local\\Temp\\torchinductor_Administrator\\cd\\ccdcwxexqeceavr42ivgorgpxfdlvtfm5poeygc3vpbkuig6z3nm.py":152:35)
#loc143 = loc("C:\\Users\\Administrator\\AppData\\Local\\Temp\\torchinductor_Administrator\\cd\\ccdcwxexqeceavr42ivgorgpxfdlvtfm5poeygc3vpbkuig6z3nm.py":153:29)
#loc144 = loc("C:\\Users\\Administrator\\AppData\\Local\\Temp\\torchinductor_Administrator\\cd\\ccdcwxexqeceavr42ivgorgpxfdlvtfm5poeygc3vpbkuig6z3nm.py":154:23)
#loc145 = loc("C:\\Users\\Administrator\\AppData\\Local\\Temp\\torchinductor_Administrator\\cd\\ccdcwxexqeceavr42ivgorgpxfdlvtfm5poeygc3vpbkuig6z3nm.py":155:31)
#loc146 = loc("C:\\Users\\Administrator\\AppData\\Local\\Temp\\torchinductor_Administrator\\cd\\ccdcwxexqeceavr42ivgorgpxfdlvtfm5poeygc3vpbkuig6z3nm.py":156:22)
#loc147 = loc("C:\\Users\\Administrator\\AppData\\Local\\Temp\\torchinductor_Administrator\\cd\\ccdcwxexqeceavr42ivgorgpxfdlvtfm5poeygc3vpbkuig6z3nm.py":157:22)
#loc148 = loc("C:\\Users\\Administrator\\AppData\\Local\\Temp\\torchinductor_Administrator\\cd\\ccdcwxexqeceavr42ivgorgpxfdlvtfm5poeygc3vpbkuig6z3nm.py":158:27)
#loc149 = loc("C:\\Users\\Administrator\\AppData\\Local\\Temp\\torchinductor_Administrator\\cd\\ccdcwxexqeceavr42ivgorgpxfdlvtfm5poeygc3vpbkuig6z3nm.py":159:40)
#loc150 = loc("C:\\Users\\Administrator\\AppData\\Local\\Temp\\torchinductor_Administrator\\cd\\ccdcwxexqeceavr42ivgorgpxfdlvtfm5poeygc3vpbkuig6z3nm.py":160:38)
#loc151 = loc("C:\\Users\\Administrator\\AppData\\Local\\Temp\\torchinductor_Administrator\\cd\\ccdcwxexqeceavr42ivgorgpxfdlvtfm5poeygc3vpbkuig6z3nm.py":161:37)
#loc152 = loc("C:\\Users\\Administrator\\AppData\\Local\\Temp\\torchinductor_Administrator\\cd\\ccdcwxexqeceavr42ivgorgpxfdlvtfm5poeygc3vpbkuig6z3nm.py":162:36)
#loc153 = loc("C:\\Users\\Administrator\\AppData\\Local\\Temp\\torchinductor_Administrator\\cd\\ccdcwxexqeceavr42ivgorgpxfdlvtfm5poeygc3vpbkuig6z3nm.py":163:35)
#loc154 = loc("C:\\Users\\Administrator\\AppData\\Local\\Temp\\torchinductor_Administrator\\cd\\ccdcwxexqeceavr42ivgorgpxfdlvtfm5poeygc3vpbkuig6z3nm.py":164:23)
#loc155 = loc("C:\\Users\\Administrator\\AppData\\Local\\Temp\\torchinductor_Administrator\\cd\\ccdcwxexqeceavr42ivgorgpxfdlvtfm5poeygc3vpbkuig6z3nm.py":165:40)
#loc156 = loc("C:\\Users\\Administrator\\AppData\\Local\\Temp\\torchinductor_Administrator\\cd\\ccdcwxexqeceavr42ivgorgpxfdlvtfm5poeygc3vpbkuig6z3nm.py":166:36)
#loc157 = loc("C:\\Users\\Administrator\\AppData\\Local\\Temp\\torchinductor_Administrator\\cd\\ccdcwxexqeceavr42ivgorgpxfdlvtfm5poeygc3vpbkuig6z3nm.py":167:21)
#loc158 = loc("C:\\Users\\Administrator\\AppData\\Local\\Temp\\torchinductor_Administrator\\cd\\ccdcwxexqeceavr42ivgorgpxfdlvtfm5poeygc3vpbkuig6z3nm.py":168:30)
#loc159 = loc("C:\\Users\\Administrator\\AppData\\Local\\Temp\\torchinductor_Administrator\\cd\\ccdcwxexqeceavr42ivgorgpxfdlvtfm5poeygc3vpbkuig6z3nm.py":169:20)
#loc160 = loc("C:\\Users\\Administrator\\AppData\\Local\\Temp\\torchinductor_Administrator\\cd\\ccdcwxexqeceavr42ivgorgpxfdlvtfm5poeygc3vpbkuig6z3nm.py":170:22)
#loc161 = loc("C:\\Users\\Administrator\\AppData\\Local\\Temp\\torchinductor_Administrator\\cd\\ccdcwxexqeceavr42ivgorgpxfdlvtfm5poeygc3vpbkuig6z3nm.py":172:29)
#loc162 = loc("C:\\Users\\Administrator\\AppData\\Local\\Temp\\torchinductor_Administrator\\cd\\ccdcwxexqeceavr42ivgorgpxfdlvtfm5poeygc3vpbkuig6z3nm.py":173:23)
#loc163 = loc("C:\\Users\\Administrator\\AppData\\Local\\Temp\\torchinductor_Administrator\\cd\\ccdcwxexqeceavr42ivgorgpxfdlvtfm5poeygc3vpbkuig6z3nm.py":174:29)
#loc164 = loc("C:\\Users\\Administrator\\AppData\\Local\\Temp\\torchinductor_Administrator\\cd\\ccdcwxexqeceavr42ivgorgpxfdlvtfm5poeygc3vpbkuig6z3nm.py":175:22)
#loc165 = loc("C:\\Users\\Administrator\\AppData\\Local\\Temp\\torchinductor_Administrator\\cd\\ccdcwxexqeceavr42ivgorgpxfdlvtfm5poeygc3vpbkuig6z3nm.py":176:22)
#loc166 = loc("C:\\Users\\Administrator\\AppData\\Local\\Temp\\torchinductor_Administrator\\cd\\ccdcwxexqeceavr42ivgorgpxfdlvtfm5poeygc3vpbkuig6z3nm.py":177:38)
#loc167 = loc("C:\\Users\\Administrator\\AppData\\Local\\Temp\\torchinductor_Administrator\\cd\\ccdcwxexqeceavr42ivgorgpxfdlvtfm5poeygc3vpbkuig6z3nm.py":177:36)
#loc168 = loc("C:\\Users\\Administrator\\AppData\\Local\\Temp\\torchinductor_Administrator\\cd\\ccdcwxexqeceavr42ivgorgpxfdlvtfm5poeygc3vpbkuig6z3nm.py":177:32)
#loc169 = loc("C:\\Users\\Administrator\\AppData\\Local\\Temp\\torchinductor_Administrator\\cd\\ccdcwxexqeceavr42ivgorgpxfdlvtfm5poeygc3vpbkuig6z3nm.py":177:43)
#loc170 = loc("C:\\Users\\Administrator\\AppData\\Local\\Temp\\torchinductor_Administrator\\cd\\ccdcwxexqeceavr42ivgorgpxfdlvtfm5poeygc3vpbkuig6z3nm.py":178:23)
#loc171 = loc("C:\\Users\\Administrator\\AppData\\Local\\Temp\\torchinductor_Administrator\\cd\\ccdcwxexqeceavr42ivgorgpxfdlvtfm5poeygc3vpbkuig6z3nm.py":179:21)
#loc172 = loc("C:\\Users\\Administrator\\AppData\\Local\\Temp\\torchinductor_Administrator\\cd\\ccdcwxexqeceavr42ivgorgpxfdlvtfm5poeygc3vpbkuig6z3nm.py":180:23)
#loc173 = loc("C:\\Users\\Administrator\\AppData\\Local\\Temp\\torchinductor_Administrator\\cd\\ccdcwxexqeceavr42ivgorgpxfdlvtfm5poeygc3vpbkuig6z3nm.py":181:13)
#loc174 = loc("C:\\Users\\Administrator\\AppData\\Local\\Temp\\torchinductor_Administrator\\cd\\ccdcwxexqeceavr42ivgorgpxfdlvtfm5poeygc3vpbkuig6z3nm.py":182:22)
#loc175 = loc("C:\\Users\\Administrator\\AppData\\Local\\Temp\\torchinductor_Administrator\\cd\\ccdcwxexqeceavr42ivgorgpxfdlvtfm5poeygc3vpbkuig6z3nm.py":183:23)
#loc176 = loc("C:\\Users\\Administrator\\AppData\\Local\\Temp\\torchinductor_Administrator\\cd\\ccdcwxexqeceavr42ivgorgpxfdlvtfm5poeygc3vpbkuig6z3nm.py":184:48)
#loc177 = loc("C:\\Users\\Administrator\\AppData\\Local\\Temp\\torchinductor_Administrator\\cd\\ccdcwxexqeceavr42ivgorgpxfdlvtfm5poeygc3vpbkuig6z3nm.py":185:22)
#loc178 = loc("C:\\Users\\Administrator\\AppData\\Local\\Temp\\torchinductor_Administrator\\cd\\ccdcwxexqeceavr42ivgorgpxfdlvtfm5poeygc3vpbkuig6z3nm.py":186:31)
#loc179 = loc("C:\\Users\\Administrator\\AppData\\Local\\Temp\\torchinductor_Administrator\\cd\\ccdcwxexqeceavr42ivgorgpxfdlvtfm5poeygc3vpbkuig6z3nm.py":187:22)
#loc180 = loc("C:\\Users\\Administrator\\AppData\\Local\\Temp\\torchinductor_Administrator\\cd\\ccdcwxexqeceavr42ivgorgpxfdlvtfm5poeygc3vpbkuig6z3nm.py":188:33)
#loc181 = loc("C:\\Users\\Administrator\\AppData\\Local\\Temp\\torchinductor_Administrator\\cd\\ccdcwxexqeceavr42ivgorgpxfdlvtfm5poeygc3vpbkuig6z3nm.py":188:25)
#loc182 = loc("C:\\Users\\Administrator\\AppData\\Local\\Temp\\torchinductor_Administrator\\cd\\ccdcwxexqeceavr42ivgorgpxfdlvtfm5poeygc3vpbkuig6z3nm.py":188:19)
#loc183 = loc("C:\\Users\\Administrator\\AppData\\Local\\Temp\\torchinductor_Administrator\\cd\\ccdcwxexqeceavr42ivgorgpxfdlvtfm5poeygc3vpbkuig6z3nm.py":189:23)
#loc184 = loc("C:\\Users\\Administrator\\AppData\\Local\\Temp\\torchinductor_Administrator\\cd\\ccdcwxexqeceavr42ivgorgpxfdlvtfm5poeygc3vpbkuig6z3nm.py":190:22)
#loc185 = loc("C:\\Users\\Administrator\\AppData\\Local\\Temp\\torchinductor_Administrator\\cd\\ccdcwxexqeceavr42ivgorgpxfdlvtfm5poeygc3vpbkuig6z3nm.py":191:46)
#loc186 = loc("C:\\Users\\Administrator\\AppData\\Local\\Temp\\torchinductor_Administrator\\cd\\ccdcwxexqeceavr42ivgorgpxfdlvtfm5poeygc3vpbkuig6z3nm.py":192:22)
#loc187 = loc("C:\\Users\\Administrator\\AppData\\Local\\Temp\\torchinductor_Administrator\\cd\\ccdcwxexqeceavr42ivgorgpxfdlvtfm5poeygc3vpbkuig6z3nm.py":193:38)
#loc188 = loc("C:\\Users\\Administrator\\AppData\\Local\\Temp\\torchinductor_Administrator\\cd\\ccdcwxexqeceavr42ivgorgpxfdlvtfm5poeygc3vpbkuig6z3nm.py":194:35)
#loc189 = loc("C:\\Users\\Administrator\\AppData\\Local\\Temp\\torchinductor_Administrator\\cd\\ccdcwxexqeceavr42ivgorgpxfdlvtfm5poeygc3vpbkuig6z3nm.py":195:35)
#loc190 = loc("C:\\Users\\Administrator\\AppData\\Local\\Temp\\torchinductor_Administrator\\cd\\ccdcwxexqeceavr42ivgorgpxfdlvtfm5poeygc3vpbkuig6z3nm.py":196:29)
#loc191 = loc("C:\\Users\\Administrator\\AppData\\Local\\Temp\\torchinductor_Administrator\\cd\\ccdcwxexqeceavr42ivgorgpxfdlvtfm5poeygc3vpbkuig6z3nm.py":197:23)
#loc192 = loc("C:\\Users\\Administrator\\AppData\\Local\\Temp\\torchinductor_Administrator\\cd\\ccdcwxexqeceavr42ivgorgpxfdlvtfm5poeygc3vpbkuig6z3nm.py":198:31)
#loc193 = loc("C:\\Users\\Administrator\\AppData\\Local\\Temp\\torchinductor_Administrator\\cd\\ccdcwxexqeceavr42ivgorgpxfdlvtfm5poeygc3vpbkuig6z3nm.py":199:22)
#loc194 = loc("C:\\Users\\Administrator\\AppData\\Local\\Temp\\torchinductor_Administrator\\cd\\ccdcwxexqeceavr42ivgorgpxfdlvtfm5poeygc3vpbkuig6z3nm.py":200:22)
#loc195 = loc("C:\\Users\\Administrator\\AppData\\Local\\Temp\\torchinductor_Administrator\\cd\\ccdcwxexqeceavr42ivgorgpxfdlvtfm5poeygc3vpbkuig6z3nm.py":201:27)
#loc196 = loc("C:\\Users\\Administrator\\AppData\\Local\\Temp\\torchinductor_Administrator\\cd\\ccdcwxexqeceavr42ivgorgpxfdlvtfm5poeygc3vpbkuig6z3nm.py":202:40)
#loc197 = loc("C:\\Users\\Administrator\\AppData\\Local\\Temp\\torchinductor_Administrator\\cd\\ccdcwxexqeceavr42ivgorgpxfdlvtfm5poeygc3vpbkuig6z3nm.py":203:38)
#loc198 = loc("C:\\Users\\Administrator\\AppData\\Local\\Temp\\torchinductor_Administrator\\cd\\ccdcwxexqeceavr42ivgorgpxfdlvtfm5poeygc3vpbkuig6z3nm.py":204:23)
#loc199 = loc("C:\\Users\\Administrator\\AppData\\Local\\Temp\\torchinductor_Administrator\\cd\\ccdcwxexqeceavr42ivgorgpxfdlvtfm5poeygc3vpbkuig6z3nm.py":205:29)
#loc200 = loc("C:\\Users\\Administrator\\AppData\\Local\\Temp\\torchinductor_Administrator\\cd\\ccdcwxexqeceavr42ivgorgpxfdlvtfm5poeygc3vpbkuig6z3nm.py":206:22)
#loc201 = loc("C:\\Users\\Administrator\\AppData\\Local\\Temp\\torchinductor_Administrator\\cd\\ccdcwxexqeceavr42ivgorgpxfdlvtfm5poeygc3vpbkuig6z3nm.py":207:22)
#loc202 = loc("C:\\Users\\Administrator\\AppData\\Local\\Temp\\torchinductor_Administrator\\cd\\ccdcwxexqeceavr42ivgorgpxfdlvtfm5poeygc3vpbkuig6z3nm.py":208:22)
#loc203 = loc("C:\\Users\\Administrator\\AppData\\Local\\Temp\\torchinductor_Administrator\\cd\\ccdcwxexqeceavr42ivgorgpxfdlvtfm5poeygc3vpbkuig6z3nm.py":209:38)
#loc204 = loc("C:\\Users\\Administrator\\AppData\\Local\\Temp\\torchinductor_Administrator\\cd\\ccdcwxexqeceavr42ivgorgpxfdlvtfm5poeygc3vpbkuig6z3nm.py":209:36)
#loc205 = loc("C:\\Users\\Administrator\\AppData\\Local\\Temp\\torchinductor_Administrator\\cd\\ccdcwxexqeceavr42ivgorgpxfdlvtfm5poeygc3vpbkuig6z3nm.py":209:32)
#loc206 = loc("C:\\Users\\Administrator\\AppData\\Local\\Temp\\torchinductor_Administrator\\cd\\ccdcwxexqeceavr42ivgorgpxfdlvtfm5poeygc3vpbkuig6z3nm.py":209:43)
#loc207 = loc("C:\\Users\\Administrator\\AppData\\Local\\Temp\\torchinductor_Administrator\\cd\\ccdcwxexqeceavr42ivgorgpxfdlvtfm5poeygc3vpbkuig6z3nm.py":210:23)
#loc208 = loc("C:\\Users\\Administrator\\AppData\\Local\\Temp\\torchinductor_Administrator\\cd\\ccdcwxexqeceavr42ivgorgpxfdlvtfm5poeygc3vpbkuig6z3nm.py":211:21)
#loc209 = loc("C:\\Users\\Administrator\\AppData\\Local\\Temp\\torchinductor_Administrator\\cd\\ccdcwxexqeceavr42ivgorgpxfdlvtfm5poeygc3vpbkuig6z3nm.py":212:23)
#loc210 = loc("C:\\Users\\Administrator\\AppData\\Local\\Temp\\torchinductor_Administrator\\cd\\ccdcwxexqeceavr42ivgorgpxfdlvtfm5poeygc3vpbkuig6z3nm.py":213:13)
#loc211 = loc("C:\\Users\\Administrator\\AppData\\Local\\Temp\\torchinductor_Administrator\\cd\\ccdcwxexqeceavr42ivgorgpxfdlvtfm5poeygc3vpbkuig6z3nm.py":214:22)
#loc212 = loc("C:\\Users\\Administrator\\AppData\\Local\\Temp\\torchinductor_Administrator\\cd\\ccdcwxexqeceavr42ivgorgpxfdlvtfm5poeygc3vpbkuig6z3nm.py":215:23)
#loc213 = loc("C:\\Users\\Administrator\\AppData\\Local\\Temp\\torchinductor_Administrator\\cd\\ccdcwxexqeceavr42ivgorgpxfdlvtfm5poeygc3vpbkuig6z3nm.py":216:48)
#loc214 = loc("C:\\Users\\Administrator\\AppData\\Local\\Temp\\torchinductor_Administrator\\cd\\ccdcwxexqeceavr42ivgorgpxfdlvtfm5poeygc3vpbkuig6z3nm.py":217:22)
#loc215 = loc("C:\\Users\\Administrator\\AppData\\Local\\Temp\\torchinductor_Administrator\\cd\\ccdcwxexqeceavr42ivgorgpxfdlvtfm5poeygc3vpbkuig6z3nm.py":218:31)
#loc216 = loc("C:\\Users\\Administrator\\AppData\\Local\\Temp\\torchinductor_Administrator\\cd\\ccdcwxexqeceavr42ivgorgpxfdlvtfm5poeygc3vpbkuig6z3nm.py":219:22)
#loc217 = loc("C:\\Users\\Administrator\\AppData\\Local\\Temp\\torchinductor_Administrator\\cd\\ccdcwxexqeceavr42ivgorgpxfdlvtfm5poeygc3vpbkuig6z3nm.py":220:33)
#loc218 = loc("C:\\Users\\Administrator\\AppData\\Local\\Temp\\torchinductor_Administrator\\cd\\ccdcwxexqeceavr42ivgorgpxfdlvtfm5poeygc3vpbkuig6z3nm.py":220:25)
#loc219 = loc("C:\\Users\\Administrator\\AppData\\Local\\Temp\\torchinductor_Administrator\\cd\\ccdcwxexqeceavr42ivgorgpxfdlvtfm5poeygc3vpbkuig6z3nm.py":220:19)
#loc220 = loc("C:\\Users\\Administrator\\AppData\\Local\\Temp\\torchinductor_Administrator\\cd\\ccdcwxexqeceavr42ivgorgpxfdlvtfm5poeygc3vpbkuig6z3nm.py":221:23)
#loc221 = loc("C:\\Users\\Administrator\\AppData\\Local\\Temp\\torchinductor_Administrator\\cd\\ccdcwxexqeceavr42ivgorgpxfdlvtfm5poeygc3vpbkuig6z3nm.py":222:22)
#loc222 = loc("C:\\Users\\Administrator\\AppData\\Local\\Temp\\torchinductor_Administrator\\cd\\ccdcwxexqeceavr42ivgorgpxfdlvtfm5poeygc3vpbkuig6z3nm.py":223:46)
#loc223 = loc("C:\\Users\\Administrator\\AppData\\Local\\Temp\\torchinductor_Administrator\\cd\\ccdcwxexqeceavr42ivgorgpxfdlvtfm5poeygc3vpbkuig6z3nm.py":224:22)
#loc224 = loc("C:\\Users\\Administrator\\AppData\\Local\\Temp\\torchinductor_Administrator\\cd\\ccdcwxexqeceavr42ivgorgpxfdlvtfm5poeygc3vpbkuig6z3nm.py":225:38)
#loc225 = loc("C:\\Users\\Administrator\\AppData\\Local\\Temp\\torchinductor_Administrator\\cd\\ccdcwxexqeceavr42ivgorgpxfdlvtfm5poeygc3vpbkuig6z3nm.py":226:35)
#loc226 = loc("C:\\Users\\Administrator\\AppData\\Local\\Temp\\torchinductor_Administrator\\cd\\ccdcwxexqeceavr42ivgorgpxfdlvtfm5poeygc3vpbkuig6z3nm.py":227:35)
#loc227 = loc("C:\\Users\\Administrator\\AppData\\Local\\Temp\\torchinductor_Administrator\\cd\\ccdcwxexqeceavr42ivgorgpxfdlvtfm5poeygc3vpbkuig6z3nm.py":228:29)
#loc228 = loc("C:\\Users\\Administrator\\AppData\\Local\\Temp\\torchinductor_Administrator\\cd\\ccdcwxexqeceavr42ivgorgpxfdlvtfm5poeygc3vpbkuig6z3nm.py":229:23)
#loc229 = loc("C:\\Users\\Administrator\\AppData\\Local\\Temp\\torchinductor_Administrator\\cd\\ccdcwxexqeceavr42ivgorgpxfdlvtfm5poeygc3vpbkuig6z3nm.py":230:31)
#loc230 = loc("C:\\Users\\Administrator\\AppData\\Local\\Temp\\torchinductor_Administrator\\cd\\ccdcwxexqeceavr42ivgorgpxfdlvtfm5poeygc3vpbkuig6z3nm.py":231:22)
#loc231 = loc("C:\\Users\\Administrator\\AppData\\Local\\Temp\\torchinductor_Administrator\\cd\\ccdcwxexqeceavr42ivgorgpxfdlvtfm5poeygc3vpbkuig6z3nm.py":232:22)
#loc232 = loc("C:\\Users\\Administrator\\AppData\\Local\\Temp\\torchinductor_Administrator\\cd\\ccdcwxexqeceavr42ivgorgpxfdlvtfm5poeygc3vpbkuig6z3nm.py":233:27)
#loc233 = loc("C:\\Users\\Administrator\\AppData\\Local\\Temp\\torchinductor_Administrator\\cd\\ccdcwxexqeceavr42ivgorgpxfdlvtfm5poeygc3vpbkuig6z3nm.py":234:14)
#loc234 = loc("C:\\Users\\Administrator\\AppData\\Local\\Temp\\torchinductor_Administrator\\cd\\ccdcwxexqeceavr42ivgorgpxfdlvtfm5poeygc3vpbkuig6z3nm.py":235:40)
#loc235 = loc("C:\\Users\\Administrator\\AppData\\Local\\Temp\\torchinductor_Administrator\\cd\\ccdcwxexqeceavr42ivgorgpxfdlvtfm5poeygc3vpbkuig6z3nm.py":236:38)
#loc236 = loc("C:\\Users\\Administrator\\AppData\\Local\\Temp\\torchinductor_Administrator\\cd\\ccdcwxexqeceavr42ivgorgpxfdlvtfm5poeygc3vpbkuig6z3nm.py":237:23)
#loc237 = loc("C:\\Users\\Administrator\\AppData\\Local\\Temp\\torchinductor_Administrator\\cd\\ccdcwxexqeceavr42ivgorgpxfdlvtfm5poeygc3vpbkuig6z3nm.py":238:29)
#loc238 = loc("C:\\Users\\Administrator\\AppData\\Local\\Temp\\torchinductor_Administrator\\cd\\ccdcwxexqeceavr42ivgorgpxfdlvtfm5poeygc3vpbkuig6z3nm.py":239:22)
#loc239 = loc("C:\\Users\\Administrator\\AppData\\Local\\Temp\\torchinductor_Administrator\\cd\\ccdcwxexqeceavr42ivgorgpxfdlvtfm5poeygc3vpbkuig6z3nm.py":240:22)
#loc240 = loc("C:\\Users\\Administrator\\AppData\\Local\\Temp\\torchinductor_Administrator\\cd\\ccdcwxexqeceavr42ivgorgpxfdlvtfm5poeygc3vpbkuig6z3nm.py":241:22)
#loc241 = loc("C:\\Users\\Administrator\\AppData\\Local\\Temp\\torchinductor_Administrator\\cd\\ccdcwxexqeceavr42ivgorgpxfdlvtfm5poeygc3vpbkuig6z3nm.py":242:38)
#loc242 = loc("C:\\Users\\Administrator\\AppData\\Local\\Temp\\torchinductor_Administrator\\cd\\ccdcwxexqeceavr42ivgorgpxfdlvtfm5poeygc3vpbkuig6z3nm.py":242:36)
#loc243 = loc("C:\\Users\\Administrator\\AppData\\Local\\Temp\\torchinductor_Administrator\\cd\\ccdcwxexqeceavr42ivgorgpxfdlvtfm5poeygc3vpbkuig6z3nm.py":242:32)
#loc244 = loc("C:\\Users\\Administrator\\AppData\\Local\\Temp\\torchinductor_Administrator\\cd\\ccdcwxexqeceavr42ivgorgpxfdlvtfm5poeygc3vpbkuig6z3nm.py":242:43)
#loc245 = loc("C:\\Users\\Administrator\\AppData\\Local\\Temp\\torchinductor_Administrator\\cd\\ccdcwxexqeceavr42ivgorgpxfdlvtfm5poeygc3vpbkuig6z3nm.py":243:23)
#loc246 = loc("C:\\Users\\Administrator\\AppData\\Local\\Temp\\torchinductor_Administrator\\cd\\ccdcwxexqeceavr42ivgorgpxfdlvtfm5poeygc3vpbkuig6z3nm.py":244:21)
#loc247 = loc("C:\\Users\\Administrator\\AppData\\Local\\Temp\\torchinductor_Administrator\\cd\\ccdcwxexqeceavr42ivgorgpxfdlvtfm5poeygc3vpbkuig6z3nm.py":245:23)
#loc248 = loc("C:\\Users\\Administrator\\AppData\\Local\\Temp\\torchinductor_Administrator\\cd\\ccdcwxexqeceavr42ivgorgpxfdlvtfm5poeygc3vpbkuig6z3nm.py":246:13)
#loc249 = loc("C:\\Users\\Administrator\\AppData\\Local\\Temp\\torchinductor_Administrator\\cd\\ccdcwxexqeceavr42ivgorgpxfdlvtfm5poeygc3vpbkuig6z3nm.py":247:22)
#loc250 = loc("C:\\Users\\Administrator\\AppData\\Local\\Temp\\torchinductor_Administrator\\cd\\ccdcwxexqeceavr42ivgorgpxfdlvtfm5poeygc3vpbkuig6z3nm.py":248:23)
#loc251 = loc("C:\\Users\\Administrator\\AppData\\Local\\Temp\\torchinductor_Administrator\\cd\\ccdcwxexqeceavr42ivgorgpxfdlvtfm5poeygc3vpbkuig6z3nm.py":249:48)
#loc252 = loc("C:\\Users\\Administrator\\AppData\\Local\\Temp\\torchinductor_Administrator\\cd\\ccdcwxexqeceavr42ivgorgpxfdlvtfm5poeygc3vpbkuig6z3nm.py":250:22)
#loc253 = loc("C:\\Users\\Administrator\\AppData\\Local\\Temp\\torchinductor_Administrator\\cd\\ccdcwxexqeceavr42ivgorgpxfdlvtfm5poeygc3vpbkuig6z3nm.py":251:31)
#loc254 = loc("C:\\Users\\Administrator\\AppData\\Local\\Temp\\torchinductor_Administrator\\cd\\ccdcwxexqeceavr42ivgorgpxfdlvtfm5poeygc3vpbkuig6z3nm.py":252:22)
#loc255 = loc("C:\\Users\\Administrator\\AppData\\Local\\Temp\\torchinductor_Administrator\\cd\\ccdcwxexqeceavr42ivgorgpxfdlvtfm5poeygc3vpbkuig6z3nm.py":253:33)
#loc256 = loc("C:\\Users\\Administrator\\AppData\\Local\\Temp\\torchinductor_Administrator\\cd\\ccdcwxexqeceavr42ivgorgpxfdlvtfm5poeygc3vpbkuig6z3nm.py":253:25)
#loc257 = loc("C:\\Users\\Administrator\\AppData\\Local\\Temp\\torchinductor_Administrator\\cd\\ccdcwxexqeceavr42ivgorgpxfdlvtfm5poeygc3vpbkuig6z3nm.py":253:19)
#loc258 = loc("C:\\Users\\Administrator\\AppData\\Local\\Temp\\torchinductor_Administrator\\cd\\ccdcwxexqeceavr42ivgorgpxfdlvtfm5poeygc3vpbkuig6z3nm.py":254:23)
#loc259 = loc("C:\\Users\\Administrator\\AppData\\Local\\Temp\\torchinductor_Administrator\\cd\\ccdcwxexqeceavr42ivgorgpxfdlvtfm5poeygc3vpbkuig6z3nm.py":255:22)
#loc260 = loc("C:\\Users\\Administrator\\AppData\\Local\\Temp\\torchinductor_Administrator\\cd\\ccdcwxexqeceavr42ivgorgpxfdlvtfm5poeygc3vpbkuig6z3nm.py":256:46)
#loc261 = loc("C:\\Users\\Administrator\\AppData\\Local\\Temp\\torchinductor_Administrator\\cd\\ccdcwxexqeceavr42ivgorgpxfdlvtfm5poeygc3vpbkuig6z3nm.py":257:22)
#loc262 = loc("C:\\Users\\Administrator\\AppData\\Local\\Temp\\torchinductor_Administrator\\cd\\ccdcwxexqeceavr42ivgorgpxfdlvtfm5poeygc3vpbkuig6z3nm.py":258:38)
#loc263 = loc("C:\\Users\\Administrator\\AppData\\Local\\Temp\\torchinductor_Administrator\\cd\\ccdcwxexqeceavr42ivgorgpxfdlvtfm5poeygc3vpbkuig6z3nm.py":259:35)
#loc264 = loc("C:\\Users\\Administrator\\AppData\\Local\\Temp\\torchinductor_Administrator\\cd\\ccdcwxexqeceavr42ivgorgpxfdlvtfm5poeygc3vpbkuig6z3nm.py":260:35)
#loc265 = loc("C:\\Users\\Administrator\\AppData\\Local\\Temp\\torchinductor_Administrator\\cd\\ccdcwxexqeceavr42ivgorgpxfdlvtfm5poeygc3vpbkuig6z3nm.py":261:29)
#loc266 = loc("C:\\Users\\Administrator\\AppData\\Local\\Temp\\torchinductor_Administrator\\cd\\ccdcwxexqeceavr42ivgorgpxfdlvtfm5poeygc3vpbkuig6z3nm.py":262:23)
#loc267 = loc("C:\\Users\\Administrator\\AppData\\Local\\Temp\\torchinductor_Administrator\\cd\\ccdcwxexqeceavr42ivgorgpxfdlvtfm5poeygc3vpbkuig6z3nm.py":263:31)
#loc268 = loc("C:\\Users\\Administrator\\AppData\\Local\\Temp\\torchinductor_Administrator\\cd\\ccdcwxexqeceavr42ivgorgpxfdlvtfm5poeygc3vpbkuig6z3nm.py":264:22)
#loc269 = loc("C:\\Users\\Administrator\\AppData\\Local\\Temp\\torchinductor_Administrator\\cd\\ccdcwxexqeceavr42ivgorgpxfdlvtfm5poeygc3vpbkuig6z3nm.py":265:22)
#loc270 = loc("C:\\Users\\Administrator\\AppData\\Local\\Temp\\torchinductor_Administrator\\cd\\ccdcwxexqeceavr42ivgorgpxfdlvtfm5poeygc3vpbkuig6z3nm.py":266:27)
#loc271 = loc("C:\\Users\\Administrator\\AppData\\Local\\Temp\\torchinductor_Administrator\\cd\\ccdcwxexqeceavr42ivgorgpxfdlvtfm5poeygc3vpbkuig6z3nm.py":267:40)
#loc272 = loc("C:\\Users\\Administrator\\AppData\\Local\\Temp\\torchinductor_Administrator\\cd\\ccdcwxexqeceavr42ivgorgpxfdlvtfm5poeygc3vpbkuig6z3nm.py":268:38)
#loc273 = loc("C:\\Users\\Administrator\\AppData\\Local\\Temp\\torchinductor_Administrator\\cd\\ccdcwxexqeceavr42ivgorgpxfdlvtfm5poeygc3vpbkuig6z3nm.py":269:23)
#loc274 = loc("C:\\Users\\Administrator\\AppData\\Local\\Temp\\torchinductor_Administrator\\cd\\ccdcwxexqeceavr42ivgorgpxfdlvtfm5poeygc3vpbkuig6z3nm.py":270:29)
#loc275 = loc("C:\\Users\\Administrator\\AppData\\Local\\Temp\\torchinductor_Administrator\\cd\\ccdcwxexqeceavr42ivgorgpxfdlvtfm5poeygc3vpbkuig6z3nm.py":271:22)
#loc276 = loc("C:\\Users\\Administrator\\AppData\\Local\\Temp\\torchinductor_Administrator\\cd\\ccdcwxexqeceavr42ivgorgpxfdlvtfm5poeygc3vpbkuig6z3nm.py":272:22)
#loc277 = loc("C:\\Users\\Administrator\\AppData\\Local\\Temp\\torchinductor_Administrator\\cd\\ccdcwxexqeceavr42ivgorgpxfdlvtfm5poeygc3vpbkuig6z3nm.py":273:38)
#loc278 = loc("C:\\Users\\Administrator\\AppData\\Local\\Temp\\torchinductor_Administrator\\cd\\ccdcwxexqeceavr42ivgorgpxfdlvtfm5poeygc3vpbkuig6z3nm.py":273:36)
#loc279 = loc("C:\\Users\\Administrator\\AppData\\Local\\Temp\\torchinductor_Administrator\\cd\\ccdcwxexqeceavr42ivgorgpxfdlvtfm5poeygc3vpbkuig6z3nm.py":273:32)
#loc280 = loc("C:\\Users\\Administrator\\AppData\\Local\\Temp\\torchinductor_Administrator\\cd\\ccdcwxexqeceavr42ivgorgpxfdlvtfm5poeygc3vpbkuig6z3nm.py":273:43)
#loc281 = loc("C:\\Users\\Administrator\\AppData\\Local\\Temp\\torchinductor_Administrator\\cd\\ccdcwxexqeceavr42ivgorgpxfdlvtfm5poeygc3vpbkuig6z3nm.py":274:23)
#loc282 = loc("C:\\Users\\Administrator\\AppData\\Local\\Temp\\torchinductor_Administrator\\cd\\ccdcwxexqeceavr42ivgorgpxfdlvtfm5poeygc3vpbkuig6z3nm.py":275:21)
#loc283 = loc("C:\\Users\\Administrator\\AppData\\Local\\Temp\\torchinductor_Administrator\\cd\\ccdcwxexqeceavr42ivgorgpxfdlvtfm5poeygc3vpbkuig6z3nm.py":276:23)
#loc284 = loc("C:\\Users\\Administrator\\AppData\\Local\\Temp\\torchinductor_Administrator\\cd\\ccdcwxexqeceavr42ivgorgpxfdlvtfm5poeygc3vpbkuig6z3nm.py":277:13)
#loc285 = loc("C:\\Users\\Administrator\\AppData\\Local\\Temp\\torchinductor_Administrator\\cd\\ccdcwxexqeceavr42ivgorgpxfdlvtfm5poeygc3vpbkuig6z3nm.py":278:22)
#loc286 = loc("C:\\Users\\Administrator\\AppData\\Local\\Temp\\torchinductor_Administrator\\cd\\ccdcwxexqeceavr42ivgorgpxfdlvtfm5poeygc3vpbkuig6z3nm.py":279:23)
#loc287 = loc("C:\\Users\\Administrator\\AppData\\Local\\Temp\\torchinductor_Administrator\\cd\\ccdcwxexqeceavr42ivgorgpxfdlvtfm5poeygc3vpbkuig6z3nm.py":280:48)
#loc288 = loc("C:\\Users\\Administrator\\AppData\\Local\\Temp\\torchinductor_Administrator\\cd\\ccdcwxexqeceavr42ivgorgpxfdlvtfm5poeygc3vpbkuig6z3nm.py":281:22)
#loc289 = loc("C:\\Users\\Administrator\\AppData\\Local\\Temp\\torchinductor_Administrator\\cd\\ccdcwxexqeceavr42ivgorgpxfdlvtfm5poeygc3vpbkuig6z3nm.py":282:31)
#loc290 = loc("C:\\Users\\Administrator\\AppData\\Local\\Temp\\torchinductor_Administrator\\cd\\ccdcwxexqeceavr42ivgorgpxfdlvtfm5poeygc3vpbkuig6z3nm.py":283:22)
#loc291 = loc("C:\\Users\\Administrator\\AppData\\Local\\Temp\\torchinductor_Administrator\\cd\\ccdcwxexqeceavr42ivgorgpxfdlvtfm5poeygc3vpbkuig6z3nm.py":284:33)
#loc292 = loc("C:\\Users\\Administrator\\AppData\\Local\\Temp\\torchinductor_Administrator\\cd\\ccdcwxexqeceavr42ivgorgpxfdlvtfm5poeygc3vpbkuig6z3nm.py":284:25)
#loc293 = loc("C:\\Users\\Administrator\\AppData\\Local\\Temp\\torchinductor_Administrator\\cd\\ccdcwxexqeceavr42ivgorgpxfdlvtfm5poeygc3vpbkuig6z3nm.py":284:19)
#loc294 = loc("C:\\Users\\Administrator\\AppData\\Local\\Temp\\torchinductor_Administrator\\cd\\ccdcwxexqeceavr42ivgorgpxfdlvtfm5poeygc3vpbkuig6z3nm.py":285:23)
#loc295 = loc("C:\\Users\\Administrator\\AppData\\Local\\Temp\\torchinductor_Administrator\\cd\\ccdcwxexqeceavr42ivgorgpxfdlvtfm5poeygc3vpbkuig6z3nm.py":286:22)
#loc296 = loc("C:\\Users\\Administrator\\AppData\\Local\\Temp\\torchinductor_Administrator\\cd\\ccdcwxexqeceavr42ivgorgpxfdlvtfm5poeygc3vpbkuig6z3nm.py":287:46)
#loc297 = loc("C:\\Users\\Administrator\\AppData\\Local\\Temp\\torchinductor_Administrator\\cd\\ccdcwxexqeceavr42ivgorgpxfdlvtfm5poeygc3vpbkuig6z3nm.py":288:22)
#loc298 = loc("C:\\Users\\Administrator\\AppData\\Local\\Temp\\torchinductor_Administrator\\cd\\ccdcwxexqeceavr42ivgorgpxfdlvtfm5poeygc3vpbkuig6z3nm.py":289:38)
#loc299 = loc("C:\\Users\\Administrator\\AppData\\Local\\Temp\\torchinductor_Administrator\\cd\\ccdcwxexqeceavr42ivgorgpxfdlvtfm5poeygc3vpbkuig6z3nm.py":290:35)
#loc300 = loc("C:\\Users\\Administrator\\AppData\\Local\\Temp\\torchinductor_Administrator\\cd\\ccdcwxexqeceavr42ivgorgpxfdlvtfm5poeygc3vpbkuig6z3nm.py":291:35)
#loc301 = loc("C:\\Users\\Administrator\\AppData\\Local\\Temp\\torchinductor_Administrator\\cd\\ccdcwxexqeceavr42ivgorgpxfdlvtfm5poeygc3vpbkuig6z3nm.py":292:29)
#loc302 = loc("C:\\Users\\Administrator\\AppData\\Local\\Temp\\torchinductor_Administrator\\cd\\ccdcwxexqeceavr42ivgorgpxfdlvtfm5poeygc3vpbkuig6z3nm.py":293:23)
#loc303 = loc("C:\\Users\\Administrator\\AppData\\Local\\Temp\\torchinductor_Administrator\\cd\\ccdcwxexqeceavr42ivgorgpxfdlvtfm5poeygc3vpbkuig6z3nm.py":294:31)
#loc304 = loc("C:\\Users\\Administrator\\AppData\\Local\\Temp\\torchinductor_Administrator\\cd\\ccdcwxexqeceavr42ivgorgpxfdlvtfm5poeygc3vpbkuig6z3nm.py":295:22)
#loc305 = loc("C:\\Users\\Administrator\\AppData\\Local\\Temp\\torchinductor_Administrator\\cd\\ccdcwxexqeceavr42ivgorgpxfdlvtfm5poeygc3vpbkuig6z3nm.py":296:22)
#loc306 = loc("C:\\Users\\Administrator\\AppData\\Local\\Temp\\torchinductor_Administrator\\cd\\ccdcwxexqeceavr42ivgorgpxfdlvtfm5poeygc3vpbkuig6z3nm.py":297:27)
#loc307 = loc("C:\\Users\\Administrator\\AppData\\Local\\Temp\\torchinductor_Administrator\\cd\\ccdcwxexqeceavr42ivgorgpxfdlvtfm5poeygc3vpbkuig6z3nm.py":298:40)
#loc308 = loc("C:\\Users\\Administrator\\AppData\\Local\\Temp\\torchinductor_Administrator\\cd\\ccdcwxexqeceavr42ivgorgpxfdlvtfm5poeygc3vpbkuig6z3nm.py":299:38)
#loc309 = loc("C:\\Users\\Administrator\\AppData\\Local\\Temp\\torchinductor_Administrator\\cd\\ccdcwxexqeceavr42ivgorgpxfdlvtfm5poeygc3vpbkuig6z3nm.py":300:38)
#loc310 = loc("C:\\Users\\Administrator\\AppData\\Local\\Temp\\torchinductor_Administrator\\cd\\ccdcwxexqeceavr42ivgorgpxfdlvtfm5poeygc3vpbkuig6z3nm.py":301:38)
#loc311 = loc("C:\\Users\\Administrator\\AppData\\Local\\Temp\\torchinductor_Administrator\\cd\\ccdcwxexqeceavr42ivgorgpxfdlvtfm5poeygc3vpbkuig6z3nm.py":302:38)
#loc312 = loc("C:\\Users\\Administrator\\AppData\\Local\\Temp\\torchinductor_Administrator\\cd\\ccdcwxexqeceavr42ivgorgpxfdlvtfm5poeygc3vpbkuig6z3nm.py":303:23)
#loc313 = loc("C:\\Users\\Administrator\\AppData\\Local\\Temp\\torchinductor_Administrator\\cd\\ccdcwxexqeceavr42ivgorgpxfdlvtfm5poeygc3vpbkuig6z3nm.py":304:40)
#loc314 = loc("C:\\Users\\Administrator\\AppData\\Local\\Temp\\torchinductor_Administrator\\cd\\ccdcwxexqeceavr42ivgorgpxfdlvtfm5poeygc3vpbkuig6z3nm.py":305:38)
#loc315 = loc("C:\\Users\\Administrator\\AppData\\Local\\Temp\\torchinductor_Administrator\\cd\\ccdcwxexqeceavr42ivgorgpxfdlvtfm5poeygc3vpbkuig6z3nm.py":306:21)
#loc316 = loc("C:\\Users\\Administrator\\AppData\\Local\\Temp\\torchinductor_Administrator\\cd\\ccdcwxexqeceavr42ivgorgpxfdlvtfm5poeygc3vpbkuig6z3nm.py":307:30)
#loc317 = loc("C:\\Users\\Administrator\\AppData\\Local\\Temp\\torchinductor_Administrator\\cd\\ccdcwxexqeceavr42ivgorgpxfdlvtfm5poeygc3vpbkuig6z3nm.py":308:20)
#loc318 = loc("C:\\Users\\Administrator\\AppData\\Local\\Temp\\torchinductor_Administrator\\cd\\ccdcwxexqeceavr42ivgorgpxfdlvtfm5poeygc3vpbkuig6z3nm.py":310:29)
#loc319 = loc("C:\\Users\\Administrator\\AppData\\Local\\Temp\\torchinductor_Administrator\\cd\\ccdcwxexqeceavr42ivgorgpxfdlvtfm5poeygc3vpbkuig6z3nm.py":311:23)
#loc320 = loc("C:\\Users\\Administrator\\AppData\\Local\\Temp\\torchinductor_Administrator\\cd\\ccdcwxexqeceavr42ivgorgpxfdlvtfm5poeygc3vpbkuig6z3nm.py":312:29)
#loc321 = loc("C:\\Users\\Administrator\\AppData\\Local\\Temp\\torchinductor_Administrator\\cd\\ccdcwxexqeceavr42ivgorgpxfdlvtfm5poeygc3vpbkuig6z3nm.py":313:22)
#loc322 = loc("C:\\Users\\Administrator\\AppData\\Local\\Temp\\torchinductor_Administrator\\cd\\ccdcwxexqeceavr42ivgorgpxfdlvtfm5poeygc3vpbkuig6z3nm.py":314:22)
#loc323 = loc("C:\\Users\\Administrator\\AppData\\Local\\Temp\\torchinductor_Administrator\\cd\\ccdcwxexqeceavr42ivgorgpxfdlvtfm5poeygc3vpbkuig6z3nm.py":315:38)
#loc324 = loc("C:\\Users\\Administrator\\AppData\\Local\\Temp\\torchinductor_Administrator\\cd\\ccdcwxexqeceavr42ivgorgpxfdlvtfm5poeygc3vpbkuig6z3nm.py":315:36)
#loc325 = loc("C:\\Users\\Administrator\\AppData\\Local\\Temp\\torchinductor_Administrator\\cd\\ccdcwxexqeceavr42ivgorgpxfdlvtfm5poeygc3vpbkuig6z3nm.py":315:32)
#loc326 = loc("C:\\Users\\Administrator\\AppData\\Local\\Temp\\torchinductor_Administrator\\cd\\ccdcwxexqeceavr42ivgorgpxfdlvtfm5poeygc3vpbkuig6z3nm.py":315:43)
#loc327 = loc("C:\\Users\\Administrator\\AppData\\Local\\Temp\\torchinductor_Administrator\\cd\\ccdcwxexqeceavr42ivgorgpxfdlvtfm5poeygc3vpbkuig6z3nm.py":316:23)
#loc328 = loc("C:\\Users\\Administrator\\AppData\\Local\\Temp\\torchinductor_Administrator\\cd\\ccdcwxexqeceavr42ivgorgpxfdlvtfm5poeygc3vpbkuig6z3nm.py":317:21)
#loc329 = loc("C:\\Users\\Administrator\\AppData\\Local\\Temp\\torchinductor_Administrator\\cd\\ccdcwxexqeceavr42ivgorgpxfdlvtfm5poeygc3vpbkuig6z3nm.py":318:23)
#loc330 = loc("C:\\Users\\Administrator\\AppData\\Local\\Temp\\torchinductor_Administrator\\cd\\ccdcwxexqeceavr42ivgorgpxfdlvtfm5poeygc3vpbkuig6z3nm.py":319:13)
#loc331 = loc("C:\\Users\\Administrator\\AppData\\Local\\Temp\\torchinductor_Administrator\\cd\\ccdcwxexqeceavr42ivgorgpxfdlvtfm5poeygc3vpbkuig6z3nm.py":320:22)
#loc332 = loc("C:\\Users\\Administrator\\AppData\\Local\\Temp\\torchinductor_Administrator\\cd\\ccdcwxexqeceavr42ivgorgpxfdlvtfm5poeygc3vpbkuig6z3nm.py":321:23)
#loc333 = loc("C:\\Users\\Administrator\\AppData\\Local\\Temp\\torchinductor_Administrator\\cd\\ccdcwxexqeceavr42ivgorgpxfdlvtfm5poeygc3vpbkuig6z3nm.py":322:48)
#loc334 = loc("C:\\Users\\Administrator\\AppData\\Local\\Temp\\torchinductor_Administrator\\cd\\ccdcwxexqeceavr42ivgorgpxfdlvtfm5poeygc3vpbkuig6z3nm.py":323:22)
#loc335 = loc("C:\\Users\\Administrator\\AppData\\Local\\Temp\\torchinductor_Administrator\\cd\\ccdcwxexqeceavr42ivgorgpxfdlvtfm5poeygc3vpbkuig6z3nm.py":324:31)
#loc336 = loc("C:\\Users\\Administrator\\AppData\\Local\\Temp\\torchinductor_Administrator\\cd\\ccdcwxexqeceavr42ivgorgpxfdlvtfm5poeygc3vpbkuig6z3nm.py":325:22)
#loc337 = loc("C:\\Users\\Administrator\\AppData\\Local\\Temp\\torchinductor_Administrator\\cd\\ccdcwxexqeceavr42ivgorgpxfdlvtfm5poeygc3vpbkuig6z3nm.py":326:33)
#loc338 = loc("C:\\Users\\Administrator\\AppData\\Local\\Temp\\torchinductor_Administrator\\cd\\ccdcwxexqeceavr42ivgorgpxfdlvtfm5poeygc3vpbkuig6z3nm.py":326:25)
#loc339 = loc("C:\\Users\\Administrator\\AppData\\Local\\Temp\\torchinductor_Administrator\\cd\\ccdcwxexqeceavr42ivgorgpxfdlvtfm5poeygc3vpbkuig6z3nm.py":326:19)
#loc340 = loc("C:\\Users\\Administrator\\AppData\\Local\\Temp\\torchinductor_Administrator\\cd\\ccdcwxexqeceavr42ivgorgpxfdlvtfm5poeygc3vpbkuig6z3nm.py":327:23)
#loc341 = loc("C:\\Users\\Administrator\\AppData\\Local\\Temp\\torchinductor_Administrator\\cd\\ccdcwxexqeceavr42ivgorgpxfdlvtfm5poeygc3vpbkuig6z3nm.py":328:22)
#loc342 = loc("C:\\Users\\Administrator\\AppData\\Local\\Temp\\torchinductor_Administrator\\cd\\ccdcwxexqeceavr42ivgorgpxfdlvtfm5poeygc3vpbkuig6z3nm.py":329:46)
#loc343 = loc("C:\\Users\\Administrator\\AppData\\Local\\Temp\\torchinductor_Administrator\\cd\\ccdcwxexqeceavr42ivgorgpxfdlvtfm5poeygc3vpbkuig6z3nm.py":330:22)
#loc344 = loc("C:\\Users\\Administrator\\AppData\\Local\\Temp\\torchinductor_Administrator\\cd\\ccdcwxexqeceavr42ivgorgpxfdlvtfm5poeygc3vpbkuig6z3nm.py":331:38)
#loc345 = loc("C:\\Users\\Administrator\\AppData\\Local\\Temp\\torchinductor_Administrator\\cd\\ccdcwxexqeceavr42ivgorgpxfdlvtfm5poeygc3vpbkuig6z3nm.py":332:35)
#loc346 = loc("C:\\Users\\Administrator\\AppData\\Local\\Temp\\torchinductor_Administrator\\cd\\ccdcwxexqeceavr42ivgorgpxfdlvtfm5poeygc3vpbkuig6z3nm.py":333:35)
#loc347 = loc("C:\\Users\\Administrator\\AppData\\Local\\Temp\\torchinductor_Administrator\\cd\\ccdcwxexqeceavr42ivgorgpxfdlvtfm5poeygc3vpbkuig6z3nm.py":334:29)
#loc348 = loc("C:\\Users\\Administrator\\AppData\\Local\\Temp\\torchinductor_Administrator\\cd\\ccdcwxexqeceavr42ivgorgpxfdlvtfm5poeygc3vpbkuig6z3nm.py":335:23)
#loc349 = loc("C:\\Users\\Administrator\\AppData\\Local\\Temp\\torchinductor_Administrator\\cd\\ccdcwxexqeceavr42ivgorgpxfdlvtfm5poeygc3vpbkuig6z3nm.py":336:31)
#loc350 = loc("C:\\Users\\Administrator\\AppData\\Local\\Temp\\torchinductor_Administrator\\cd\\ccdcwxexqeceavr42ivgorgpxfdlvtfm5poeygc3vpbkuig6z3nm.py":337:22)
#loc351 = loc("C:\\Users\\Administrator\\AppData\\Local\\Temp\\torchinductor_Administrator\\cd\\ccdcwxexqeceavr42ivgorgpxfdlvtfm5poeygc3vpbkuig6z3nm.py":338:22)
#loc352 = loc("C:\\Users\\Administrator\\AppData\\Local\\Temp\\torchinductor_Administrator\\cd\\ccdcwxexqeceavr42ivgorgpxfdlvtfm5poeygc3vpbkuig6z3nm.py":339:27)
#loc353 = loc("C:\\Users\\Administrator\\AppData\\Local\\Temp\\torchinductor_Administrator\\cd\\ccdcwxexqeceavr42ivgorgpxfdlvtfm5poeygc3vpbkuig6z3nm.py":340:40)
#loc354 = loc("C:\\Users\\Administrator\\AppData\\Local\\Temp\\torchinductor_Administrator\\cd\\ccdcwxexqeceavr42ivgorgpxfdlvtfm5poeygc3vpbkuig6z3nm.py":341:38)
#loc355 = loc("C:\\Users\\Administrator\\AppData\\Local\\Temp\\torchinductor_Administrator\\cd\\ccdcwxexqeceavr42ivgorgpxfdlvtfm5poeygc3vpbkuig6z3nm.py":342:23)
#loc356 = loc("C:\\Users\\Administrator\\AppData\\Local\\Temp\\torchinductor_Administrator\\cd\\ccdcwxexqeceavr42ivgorgpxfdlvtfm5poeygc3vpbkuig6z3nm.py":343:29)
#loc357 = loc("C:\\Users\\Administrator\\AppData\\Local\\Temp\\torchinductor_Administrator\\cd\\ccdcwxexqeceavr42ivgorgpxfdlvtfm5poeygc3vpbkuig6z3nm.py":344:22)
#loc358 = loc("C:\\Users\\Administrator\\AppData\\Local\\Temp\\torchinductor_Administrator\\cd\\ccdcwxexqeceavr42ivgorgpxfdlvtfm5poeygc3vpbkuig6z3nm.py":345:22)
#loc359 = loc("C:\\Users\\Administrator\\AppData\\Local\\Temp\\torchinductor_Administrator\\cd\\ccdcwxexqeceavr42ivgorgpxfdlvtfm5poeygc3vpbkuig6z3nm.py":346:22)
#loc360 = loc("C:\\Users\\Administrator\\AppData\\Local\\Temp\\torchinductor_Administrator\\cd\\ccdcwxexqeceavr42ivgorgpxfdlvtfm5poeygc3vpbkuig6z3nm.py":347:38)
#loc361 = loc("C:\\Users\\Administrator\\AppData\\Local\\Temp\\torchinductor_Administrator\\cd\\ccdcwxexqeceavr42ivgorgpxfdlvtfm5poeygc3vpbkuig6z3nm.py":347:36)
#loc362 = loc("C:\\Users\\Administrator\\AppData\\Local\\Temp\\torchinductor_Administrator\\cd\\ccdcwxexqeceavr42ivgorgpxfdlvtfm5poeygc3vpbkuig6z3nm.py":347:32)
#loc363 = loc("C:\\Users\\Administrator\\AppData\\Local\\Temp\\torchinductor_Administrator\\cd\\ccdcwxexqeceavr42ivgorgpxfdlvtfm5poeygc3vpbkuig6z3nm.py":347:43)
#loc364 = loc("C:\\Users\\Administrator\\AppData\\Local\\Temp\\torchinductor_Administrator\\cd\\ccdcwxexqeceavr42ivgorgpxfdlvtfm5poeygc3vpbkuig6z3nm.py":348:23)
#loc365 = loc("C:\\Users\\Administrator\\AppData\\Local\\Temp\\torchinductor_Administrator\\cd\\ccdcwxexqeceavr42ivgorgpxfdlvtfm5poeygc3vpbkuig6z3nm.py":349:21)
#loc366 = loc("C:\\Users\\Administrator\\AppData\\Local\\Temp\\torchinductor_Administrator\\cd\\ccdcwxexqeceavr42ivgorgpxfdlvtfm5poeygc3vpbkuig6z3nm.py":350:23)
#loc367 = loc("C:\\Users\\Administrator\\AppData\\Local\\Temp\\torchinductor_Administrator\\cd\\ccdcwxexqeceavr42ivgorgpxfdlvtfm5poeygc3vpbkuig6z3nm.py":351:13)
#loc368 = loc("C:\\Users\\Administrator\\AppData\\Local\\Temp\\torchinductor_Administrator\\cd\\ccdcwxexqeceavr42ivgorgpxfdlvtfm5poeygc3vpbkuig6z3nm.py":352:22)
#loc369 = loc("C:\\Users\\Administrator\\AppData\\Local\\Temp\\torchinductor_Administrator\\cd\\ccdcwxexqeceavr42ivgorgpxfdlvtfm5poeygc3vpbkuig6z3nm.py":353:23)
#loc370 = loc("C:\\Users\\Administrator\\AppData\\Local\\Temp\\torchinductor_Administrator\\cd\\ccdcwxexqeceavr42ivgorgpxfdlvtfm5poeygc3vpbkuig6z3nm.py":354:48)
#loc371 = loc("C:\\Users\\Administrator\\AppData\\Local\\Temp\\torchinductor_Administrator\\cd\\ccdcwxexqeceavr42ivgorgpxfdlvtfm5poeygc3vpbkuig6z3nm.py":355:22)
#loc372 = loc("C:\\Users\\Administrator\\AppData\\Local\\Temp\\torchinductor_Administrator\\cd\\ccdcwxexqeceavr42ivgorgpxfdlvtfm5poeygc3vpbkuig6z3nm.py":356:31)
#loc373 = loc("C:\\Users\\Administrator\\AppData\\Local\\Temp\\torchinductor_Administrator\\cd\\ccdcwxexqeceavr42ivgorgpxfdlvtfm5poeygc3vpbkuig6z3nm.py":357:22)
#loc374 = loc("C:\\Users\\Administrator\\AppData\\Local\\Temp\\torchinductor_Administrator\\cd\\ccdcwxexqeceavr42ivgorgpxfdlvtfm5poeygc3vpbkuig6z3nm.py":358:33)
#loc375 = loc("C:\\Users\\Administrator\\AppData\\Local\\Temp\\torchinductor_Administrator\\cd\\ccdcwxexqeceavr42ivgorgpxfdlvtfm5poeygc3vpbkuig6z3nm.py":358:25)
#loc376 = loc("C:\\Users\\Administrator\\AppData\\Local\\Temp\\torchinductor_Administrator\\cd\\ccdcwxexqeceavr42ivgorgpxfdlvtfm5poeygc3vpbkuig6z3nm.py":358:19)
#loc377 = loc("C:\\Users\\Administrator\\AppData\\Local\\Temp\\torchinductor_Administrator\\cd\\ccdcwxexqeceavr42ivgorgpxfdlvtfm5poeygc3vpbkuig6z3nm.py":359:23)
#loc378 = loc("C:\\Users\\Administrator\\AppData\\Local\\Temp\\torchinductor_Administrator\\cd\\ccdcwxexqeceavr42ivgorgpxfdlvtfm5poeygc3vpbkuig6z3nm.py":360:22)
#loc379 = loc("C:\\Users\\Administrator\\AppData\\Local\\Temp\\torchinductor_Administrator\\cd\\ccdcwxexqeceavr42ivgorgpxfdlvtfm5poeygc3vpbkuig6z3nm.py":361:46)
#loc380 = loc("C:\\Users\\Administrator\\AppData\\Local\\Temp\\torchinductor_Administrator\\cd\\ccdcwxexqeceavr42ivgorgpxfdlvtfm5poeygc3vpbkuig6z3nm.py":362:22)
#loc381 = loc("C:\\Users\\Administrator\\AppData\\Local\\Temp\\torchinductor_Administrator\\cd\\ccdcwxexqeceavr42ivgorgpxfdlvtfm5poeygc3vpbkuig6z3nm.py":363:38)
#loc382 = loc("C:\\Users\\Administrator\\AppData\\Local\\Temp\\torchinductor_Administrator\\cd\\ccdcwxexqeceavr42ivgorgpxfdlvtfm5poeygc3vpbkuig6z3nm.py":364:35)
#loc383 = loc("C:\\Users\\Administrator\\AppData\\Local\\Temp\\torchinductor_Administrator\\cd\\ccdcwxexqeceavr42ivgorgpxfdlvtfm5poeygc3vpbkuig6z3nm.py":365:35)
#loc384 = loc("C:\\Users\\Administrator\\AppData\\Local\\Temp\\torchinductor_Administrator\\cd\\ccdcwxexqeceavr42ivgorgpxfdlvtfm5poeygc3vpbkuig6z3nm.py":366:29)
#loc385 = loc("C:\\Users\\Administrator\\AppData\\Local\\Temp\\torchinductor_Administrator\\cd\\ccdcwxexqeceavr42ivgorgpxfdlvtfm5poeygc3vpbkuig6z3nm.py":367:23)
#loc386 = loc("C:\\Users\\Administrator\\AppData\\Local\\Temp\\torchinductor_Administrator\\cd\\ccdcwxexqeceavr42ivgorgpxfdlvtfm5poeygc3vpbkuig6z3nm.py":368:31)
#loc387 = loc("C:\\Users\\Administrator\\AppData\\Local\\Temp\\torchinductor_Administrator\\cd\\ccdcwxexqeceavr42ivgorgpxfdlvtfm5poeygc3vpbkuig6z3nm.py":369:22)
#loc388 = loc("C:\\Users\\Administrator\\AppData\\Local\\Temp\\torchinductor_Administrator\\cd\\ccdcwxexqeceavr42ivgorgpxfdlvtfm5poeygc3vpbkuig6z3nm.py":370:22)
#loc389 = loc("C:\\Users\\Administrator\\AppData\\Local\\Temp\\torchinductor_Administrator\\cd\\ccdcwxexqeceavr42ivgorgpxfdlvtfm5poeygc3vpbkuig6z3nm.py":371:27)
#loc390 = loc("C:\\Users\\Administrator\\AppData\\Local\\Temp\\torchinductor_Administrator\\cd\\ccdcwxexqeceavr42ivgorgpxfdlvtfm5poeygc3vpbkuig6z3nm.py":372:14)
#loc391 = loc("C:\\Users\\Administrator\\AppData\\Local\\Temp\\torchinductor_Administrator\\cd\\ccdcwxexqeceavr42ivgorgpxfdlvtfm5poeygc3vpbkuig6z3nm.py":373:40)
#loc392 = loc("C:\\Users\\Administrator\\AppData\\Local\\Temp\\torchinductor_Administrator\\cd\\ccdcwxexqeceavr42ivgorgpxfdlvtfm5poeygc3vpbkuig6z3nm.py":374:38)
#loc393 = loc("C:\\Users\\Administrator\\AppData\\Local\\Temp\\torchinductor_Administrator\\cd\\ccdcwxexqeceavr42ivgorgpxfdlvtfm5poeygc3vpbkuig6z3nm.py":375:23)
#loc394 = loc("C:\\Users\\Administrator\\AppData\\Local\\Temp\\torchinductor_Administrator\\cd\\ccdcwxexqeceavr42ivgorgpxfdlvtfm5poeygc3vpbkuig6z3nm.py":376:29)
#loc395 = loc("C:\\Users\\Administrator\\AppData\\Local\\Temp\\torchinductor_Administrator\\cd\\ccdcwxexqeceavr42ivgorgpxfdlvtfm5poeygc3vpbkuig6z3nm.py":377:22)
#loc396 = loc("C:\\Users\\Administrator\\AppData\\Local\\Temp\\torchinductor_Administrator\\cd\\ccdcwxexqeceavr42ivgorgpxfdlvtfm5poeygc3vpbkuig6z3nm.py":378:22)
#loc397 = loc("C:\\Users\\Administrator\\AppData\\Local\\Temp\\torchinductor_Administrator\\cd\\ccdcwxexqeceavr42ivgorgpxfdlvtfm5poeygc3vpbkuig6z3nm.py":379:22)
#loc398 = loc("C:\\Users\\Administrator\\AppData\\Local\\Temp\\torchinductor_Administrator\\cd\\ccdcwxexqeceavr42ivgorgpxfdlvtfm5poeygc3vpbkuig6z3nm.py":380:38)
#loc399 = loc("C:\\Users\\Administrator\\AppData\\Local\\Temp\\torchinductor_Administrator\\cd\\ccdcwxexqeceavr42ivgorgpxfdlvtfm5poeygc3vpbkuig6z3nm.py":380:36)
#loc400 = loc("C:\\Users\\Administrator\\AppData\\Local\\Temp\\torchinductor_Administrator\\cd\\ccdcwxexqeceavr42ivgorgpxfdlvtfm5poeygc3vpbkuig6z3nm.py":380:32)
#loc401 = loc("C:\\Users\\Administrator\\AppData\\Local\\Temp\\torchinductor_Administrator\\cd\\ccdcwxexqeceavr42ivgorgpxfdlvtfm5poeygc3vpbkuig6z3nm.py":380:43)
#loc402 = loc("C:\\Users\\Administrator\\AppData\\Local\\Temp\\torchinductor_Administrator\\cd\\ccdcwxexqeceavr42ivgorgpxfdlvtfm5poeygc3vpbkuig6z3nm.py":381:23)
#loc403 = loc("C:\\Users\\Administrator\\AppData\\Local\\Temp\\torchinductor_Administrator\\cd\\ccdcwxexqeceavr42ivgorgpxfdlvtfm5poeygc3vpbkuig6z3nm.py":382:21)
#loc404 = loc("C:\\Users\\Administrator\\AppData\\Local\\Temp\\torchinductor_Administrator\\cd\\ccdcwxexqeceavr42ivgorgpxfdlvtfm5poeygc3vpbkuig6z3nm.py":383:23)
#loc405 = loc("C:\\Users\\Administrator\\AppData\\Local\\Temp\\torchinductor_Administrator\\cd\\ccdcwxexqeceavr42ivgorgpxfdlvtfm5poeygc3vpbkuig6z3nm.py":384:13)
#loc406 = loc("C:\\Users\\Administrator\\AppData\\Local\\Temp\\torchinductor_Administrator\\cd\\ccdcwxexqeceavr42ivgorgpxfdlvtfm5poeygc3vpbkuig6z3nm.py":385:22)
#loc407 = loc("C:\\Users\\Administrator\\AppData\\Local\\Temp\\torchinductor_Administrator\\cd\\ccdcwxexqeceavr42ivgorgpxfdlvtfm5poeygc3vpbkuig6z3nm.py":386:23)
#loc408 = loc("C:\\Users\\Administrator\\AppData\\Local\\Temp\\torchinductor_Administrator\\cd\\ccdcwxexqeceavr42ivgorgpxfdlvtfm5poeygc3vpbkuig6z3nm.py":387:48)
#loc409 = loc("C:\\Users\\Administrator\\AppData\\Local\\Temp\\torchinductor_Administrator\\cd\\ccdcwxexqeceavr42ivgorgpxfdlvtfm5poeygc3vpbkuig6z3nm.py":388:22)
#loc410 = loc("C:\\Users\\Administrator\\AppData\\Local\\Temp\\torchinductor_Administrator\\cd\\ccdcwxexqeceavr42ivgorgpxfdlvtfm5poeygc3vpbkuig6z3nm.py":389:31)
#loc411 = loc("C:\\Users\\Administrator\\AppData\\Local\\Temp\\torchinductor_Administrator\\cd\\ccdcwxexqeceavr42ivgorgpxfdlvtfm5poeygc3vpbkuig6z3nm.py":390:22)
#loc412 = loc("C:\\Users\\Administrator\\AppData\\Local\\Temp\\torchinductor_Administrator\\cd\\ccdcwxexqeceavr42ivgorgpxfdlvtfm5poeygc3vpbkuig6z3nm.py":391:33)
#loc413 = loc("C:\\Users\\Administrator\\AppData\\Local\\Temp\\torchinductor_Administrator\\cd\\ccdcwxexqeceavr42ivgorgpxfdlvtfm5poeygc3vpbkuig6z3nm.py":391:25)
#loc414 = loc("C:\\Users\\Administrator\\AppData\\Local\\Temp\\torchinductor_Administrator\\cd\\ccdcwxexqeceavr42ivgorgpxfdlvtfm5poeygc3vpbkuig6z3nm.py":391:19)
#loc415 = loc("C:\\Users\\Administrator\\AppData\\Local\\Temp\\torchinductor_Administrator\\cd\\ccdcwxexqeceavr42ivgorgpxfdlvtfm5poeygc3vpbkuig6z3nm.py":392:23)
#loc416 = loc("C:\\Users\\Administrator\\AppData\\Local\\Temp\\torchinductor_Administrator\\cd\\ccdcwxexqeceavr42ivgorgpxfdlvtfm5poeygc3vpbkuig6z3nm.py":393:22)
#loc417 = loc("C:\\Users\\Administrator\\AppData\\Local\\Temp\\torchinductor_Administrator\\cd\\ccdcwxexqeceavr42ivgorgpxfdlvtfm5poeygc3vpbkuig6z3nm.py":394:46)
#loc418 = loc("C:\\Users\\Administrator\\AppData\\Local\\Temp\\torchinductor_Administrator\\cd\\ccdcwxexqeceavr42ivgorgpxfdlvtfm5poeygc3vpbkuig6z3nm.py":395:22)
#loc419 = loc("C:\\Users\\Administrator\\AppData\\Local\\Temp\\torchinductor_Administrator\\cd\\ccdcwxexqeceavr42ivgorgpxfdlvtfm5poeygc3vpbkuig6z3nm.py":396:38)
#loc420 = loc("C:\\Users\\Administrator\\AppData\\Local\\Temp\\torchinductor_Administrator\\cd\\ccdcwxexqeceavr42ivgorgpxfdlvtfm5poeygc3vpbkuig6z3nm.py":397:35)
#loc421 = loc("C:\\Users\\Administrator\\AppData\\Local\\Temp\\torchinductor_Administrator\\cd\\ccdcwxexqeceavr42ivgorgpxfdlvtfm5poeygc3vpbkuig6z3nm.py":398:35)
#loc422 = loc("C:\\Users\\Administrator\\AppData\\Local\\Temp\\torchinductor_Administrator\\cd\\ccdcwxexqeceavr42ivgorgpxfdlvtfm5poeygc3vpbkuig6z3nm.py":399:29)
#loc423 = loc("C:\\Users\\Administrator\\AppData\\Local\\Temp\\torchinductor_Administrator\\cd\\ccdcwxexqeceavr42ivgorgpxfdlvtfm5poeygc3vpbkuig6z3nm.py":400:23)
#loc424 = loc("C:\\Users\\Administrator\\AppData\\Local\\Temp\\torchinductor_Administrator\\cd\\ccdcwxexqeceavr42ivgorgpxfdlvtfm5poeygc3vpbkuig6z3nm.py":401:31)
#loc425 = loc("C:\\Users\\Administrator\\AppData\\Local\\Temp\\torchinductor_Administrator\\cd\\ccdcwxexqeceavr42ivgorgpxfdlvtfm5poeygc3vpbkuig6z3nm.py":402:22)
#loc426 = loc("C:\\Users\\Administrator\\AppData\\Local\\Temp\\torchinductor_Administrator\\cd\\ccdcwxexqeceavr42ivgorgpxfdlvtfm5poeygc3vpbkuig6z3nm.py":403:22)
#loc427 = loc("C:\\Users\\Administrator\\AppData\\Local\\Temp\\torchinductor_Administrator\\cd\\ccdcwxexqeceavr42ivgorgpxfdlvtfm5poeygc3vpbkuig6z3nm.py":404:27)
#loc428 = loc("C:\\Users\\Administrator\\AppData\\Local\\Temp\\torchinductor_Administrator\\cd\\ccdcwxexqeceavr42ivgorgpxfdlvtfm5poeygc3vpbkuig6z3nm.py":405:40)
#loc429 = loc("C:\\Users\\Administrator\\AppData\\Local\\Temp\\torchinductor_Administrator\\cd\\ccdcwxexqeceavr42ivgorgpxfdlvtfm5poeygc3vpbkuig6z3nm.py":406:38)
#loc430 = loc("C:\\Users\\Administrator\\AppData\\Local\\Temp\\torchinductor_Administrator\\cd\\ccdcwxexqeceavr42ivgorgpxfdlvtfm5poeygc3vpbkuig6z3nm.py":407:23)
#loc431 = loc("C:\\Users\\Administrator\\AppData\\Local\\Temp\\torchinductor_Administrator\\cd\\ccdcwxexqeceavr42ivgorgpxfdlvtfm5poeygc3vpbkuig6z3nm.py":408:29)
#loc432 = loc("C:\\Users\\Administrator\\AppData\\Local\\Temp\\torchinductor_Administrator\\cd\\ccdcwxexqeceavr42ivgorgpxfdlvtfm5poeygc3vpbkuig6z3nm.py":409:22)
#loc433 = loc("C:\\Users\\Administrator\\AppData\\Local\\Temp\\torchinductor_Administrator\\cd\\ccdcwxexqeceavr42ivgorgpxfdlvtfm5poeygc3vpbkuig6z3nm.py":410:22)
#loc434 = loc("C:\\Users\\Administrator\\AppData\\Local\\Temp\\torchinductor_Administrator\\cd\\ccdcwxexqeceavr42ivgorgpxfdlvtfm5poeygc3vpbkuig6z3nm.py":411:38)
#loc435 = loc("C:\\Users\\Administrator\\AppData\\Local\\Temp\\torchinductor_Administrator\\cd\\ccdcwxexqeceavr42ivgorgpxfdlvtfm5poeygc3vpbkuig6z3nm.py":411:36)
#loc436 = loc("C:\\Users\\Administrator\\AppData\\Local\\Temp\\torchinductor_Administrator\\cd\\ccdcwxexqeceavr42ivgorgpxfdlvtfm5poeygc3vpbkuig6z3nm.py":411:32)
#loc437 = loc("C:\\Users\\Administrator\\AppData\\Local\\Temp\\torchinductor_Administrator\\cd\\ccdcwxexqeceavr42ivgorgpxfdlvtfm5poeygc3vpbkuig6z3nm.py":411:43)
#loc438 = loc("C:\\Users\\Administrator\\AppData\\Local\\Temp\\torchinductor_Administrator\\cd\\ccdcwxexqeceavr42ivgorgpxfdlvtfm5poeygc3vpbkuig6z3nm.py":412:23)
#loc439 = loc("C:\\Users\\Administrator\\AppData\\Local\\Temp\\torchinductor_Administrator\\cd\\ccdcwxexqeceavr42ivgorgpxfdlvtfm5poeygc3vpbkuig6z3nm.py":413:21)
#loc440 = loc("C:\\Users\\Administrator\\AppData\\Local\\Temp\\torchinductor_Administrator\\cd\\ccdcwxexqeceavr42ivgorgpxfdlvtfm5poeygc3vpbkuig6z3nm.py":414:23)
#loc441 = loc("C:\\Users\\Administrator\\AppData\\Local\\Temp\\torchinductor_Administrator\\cd\\ccdcwxexqeceavr42ivgorgpxfdlvtfm5poeygc3vpbkuig6z3nm.py":415:13)
#loc442 = loc("C:\\Users\\Administrator\\AppData\\Local\\Temp\\torchinductor_Administrator\\cd\\ccdcwxexqeceavr42ivgorgpxfdlvtfm5poeygc3vpbkuig6z3nm.py":416:22)
#loc443 = loc("C:\\Users\\Administrator\\AppData\\Local\\Temp\\torchinductor_Administrator\\cd\\ccdcwxexqeceavr42ivgorgpxfdlvtfm5poeygc3vpbkuig6z3nm.py":417:23)
#loc444 = loc("C:\\Users\\Administrator\\AppData\\Local\\Temp\\torchinductor_Administrator\\cd\\ccdcwxexqeceavr42ivgorgpxfdlvtfm5poeygc3vpbkuig6z3nm.py":418:48)
#loc445 = loc("C:\\Users\\Administrator\\AppData\\Local\\Temp\\torchinductor_Administrator\\cd\\ccdcwxexqeceavr42ivgorgpxfdlvtfm5poeygc3vpbkuig6z3nm.py":419:22)
#loc446 = loc("C:\\Users\\Administrator\\AppData\\Local\\Temp\\torchinductor_Administrator\\cd\\ccdcwxexqeceavr42ivgorgpxfdlvtfm5poeygc3vpbkuig6z3nm.py":420:31)
#loc447 = loc("C:\\Users\\Administrator\\AppData\\Local\\Temp\\torchinductor_Administrator\\cd\\ccdcwxexqeceavr42ivgorgpxfdlvtfm5poeygc3vpbkuig6z3nm.py":421:22)
#loc448 = loc("C:\\Users\\Administrator\\AppData\\Local\\Temp\\torchinductor_Administrator\\cd\\ccdcwxexqeceavr42ivgorgpxfdlvtfm5poeygc3vpbkuig6z3nm.py":422:33)
#loc449 = loc("C:\\Users\\Administrator\\AppData\\Local\\Temp\\torchinductor_Administrator\\cd\\ccdcwxexqeceavr42ivgorgpxfdlvtfm5poeygc3vpbkuig6z3nm.py":422:25)
#loc450 = loc("C:\\Users\\Administrator\\AppData\\Local\\Temp\\torchinductor_Administrator\\cd\\ccdcwxexqeceavr42ivgorgpxfdlvtfm5poeygc3vpbkuig6z3nm.py":422:19)
#loc451 = loc("C:\\Users\\Administrator\\AppData\\Local\\Temp\\torchinductor_Administrator\\cd\\ccdcwxexqeceavr42ivgorgpxfdlvtfm5poeygc3vpbkuig6z3nm.py":423:23)
#loc452 = loc("C:\\Users\\Administrator\\AppData\\Local\\Temp\\torchinductor_Administrator\\cd\\ccdcwxexqeceavr42ivgorgpxfdlvtfm5poeygc3vpbkuig6z3nm.py":424:22)
#loc453 = loc("C:\\Users\\Administrator\\AppData\\Local\\Temp\\torchinductor_Administrator\\cd\\ccdcwxexqeceavr42ivgorgpxfdlvtfm5poeygc3vpbkuig6z3nm.py":425:46)
#loc454 = loc("C:\\Users\\Administrator\\AppData\\Local\\Temp\\torchinductor_Administrator\\cd\\ccdcwxexqeceavr42ivgorgpxfdlvtfm5poeygc3vpbkuig6z3nm.py":426:22)
#loc455 = loc("C:\\Users\\Administrator\\AppData\\Local\\Temp\\torchinductor_Administrator\\cd\\ccdcwxexqeceavr42ivgorgpxfdlvtfm5poeygc3vpbkuig6z3nm.py":427:38)
#loc456 = loc("C:\\Users\\Administrator\\AppData\\Local\\Temp\\torchinductor_Administrator\\cd\\ccdcwxexqeceavr42ivgorgpxfdlvtfm5poeygc3vpbkuig6z3nm.py":428:35)
#loc457 = loc("C:\\Users\\Administrator\\AppData\\Local\\Temp\\torchinductor_Administrator\\cd\\ccdcwxexqeceavr42ivgorgpxfdlvtfm5poeygc3vpbkuig6z3nm.py":429:35)
#loc458 = loc("C:\\Users\\Administrator\\AppData\\Local\\Temp\\torchinductor_Administrator\\cd\\ccdcwxexqeceavr42ivgorgpxfdlvtfm5poeygc3vpbkuig6z3nm.py":430:29)
#loc459 = loc("C:\\Users\\Administrator\\AppData\\Local\\Temp\\torchinductor_Administrator\\cd\\ccdcwxexqeceavr42ivgorgpxfdlvtfm5poeygc3vpbkuig6z3nm.py":431:23)
#loc460 = loc("C:\\Users\\Administrator\\AppData\\Local\\Temp\\torchinductor_Administrator\\cd\\ccdcwxexqeceavr42ivgorgpxfdlvtfm5poeygc3vpbkuig6z3nm.py":432:31)
#loc461 = loc("C:\\Users\\Administrator\\AppData\\Local\\Temp\\torchinductor_Administrator\\cd\\ccdcwxexqeceavr42ivgorgpxfdlvtfm5poeygc3vpbkuig6z3nm.py":433:22)
#loc462 = loc("C:\\Users\\Administrator\\AppData\\Local\\Temp\\torchinductor_Administrator\\cd\\ccdcwxexqeceavr42ivgorgpxfdlvtfm5poeygc3vpbkuig6z3nm.py":434:22)
#loc463 = loc("C:\\Users\\Administrator\\AppData\\Local\\Temp\\torchinductor_Administrator\\cd\\ccdcwxexqeceavr42ivgorgpxfdlvtfm5poeygc3vpbkuig6z3nm.py":435:27)
#loc464 = loc("C:\\Users\\Administrator\\AppData\\Local\\Temp\\torchinductor_Administrator\\cd\\ccdcwxexqeceavr42ivgorgpxfdlvtfm5poeygc3vpbkuig6z3nm.py":436:40)
#loc465 = loc("C:\\Users\\Administrator\\AppData\\Local\\Temp\\torchinductor_Administrator\\cd\\ccdcwxexqeceavr42ivgorgpxfdlvtfm5poeygc3vpbkuig6z3nm.py":437:38)
#loc466 = loc("C:\\Users\\Administrator\\AppData\\Local\\Temp\\torchinductor_Administrator\\cd\\ccdcwxexqeceavr42ivgorgpxfdlvtfm5poeygc3vpbkuig6z3nm.py":438:38)
#loc467 = loc("C:\\Users\\Administrator\\AppData\\Local\\Temp\\torchinductor_Administrator\\cd\\ccdcwxexqeceavr42ivgorgpxfdlvtfm5poeygc3vpbkuig6z3nm.py":439:38)
#loc468 = loc("C:\\Users\\Administrator\\AppData\\Local\\Temp\\torchinductor_Administrator\\cd\\ccdcwxexqeceavr42ivgorgpxfdlvtfm5poeygc3vpbkuig6z3nm.py":440:38)
#loc469 = loc("C:\\Users\\Administrator\\AppData\\Local\\Temp\\torchinductor_Administrator\\cd\\ccdcwxexqeceavr42ivgorgpxfdlvtfm5poeygc3vpbkuig6z3nm.py":441:23)
#loc470 = loc("C:\\Users\\Administrator\\AppData\\Local\\Temp\\torchinductor_Administrator\\cd\\ccdcwxexqeceavr42ivgorgpxfdlvtfm5poeygc3vpbkuig6z3nm.py":442:40)
#loc471 = loc("C:\\Users\\Administrator\\AppData\\Local\\Temp\\torchinductor_Administrator\\cd\\ccdcwxexqeceavr42ivgorgpxfdlvtfm5poeygc3vpbkuig6z3nm.py":443:38)
#loc472 = loc("C:\\Users\\Administrator\\AppData\\Local\\Temp\\torchinductor_Administrator\\cd\\ccdcwxexqeceavr42ivgorgpxfdlvtfm5poeygc3vpbkuig6z3nm.py":444:38)
#loc473 = loc("C:\\Users\\Administrator\\AppData\\Local\\Temp\\torchinductor_Administrator\\cd\\ccdcwxexqeceavr42ivgorgpxfdlvtfm5poeygc3vpbkuig6z3nm.py":445:36)
#loc474 = loc("C:\\Users\\Administrator\\AppData\\Local\\Temp\\torchinductor_Administrator\\cd\\ccdcwxexqeceavr42ivgorgpxfdlvtfm5poeygc3vpbkuig6z3nm.py":446:25)
#loc475 = loc("C:\\Users\\Administrator\\AppData\\Local\\Temp\\torchinductor_Administrator\\cd\\ccdcwxexqeceavr42ivgorgpxfdlvtfm5poeygc3vpbkuig6z3nm.py":446:38)
#loc476 = loc("C:\\Users\\Administrator\\AppData\\Local\\Temp\\torchinductor_Administrator\\cd\\ccdcwxexqeceavr42ivgorgpxfdlvtfm5poeygc3vpbkuig6z3nm.py":446:4)
